best_unet_model.pt (torch, 773953 bytes, 75 tensors)

encoder1.conv.0.weight f4 [32, 1, 3]
0	0x3de903c8	0.11377674
1	0x3eb9bf0e	0.36278576
2	0x3ea7d750	0.32781458
3	0x3d91804b	0.07104548
4	0xbe91c2c6	-0.28468913
5	0x3e59c738	0.21267402
6	0x3ec5147f	0.384922
7	0x3ccd0333	0.02502594
8	0xbde6eca7	-0.112756066
9	0xbe762b86	-0.2404004
10	0x3f0535ed	0.5203541
11	0xbea0d30c	-0.31411016
12	0xbe9aba9f	-0.30220506
13	0xbe89358c	-0.26798666
14	0xbe6f91c6	-0.23395452
15	0x3f08b44b	0.53400105
16	0xbee74455	-0.4516932
17	0xbda62ca4	-0.08113983
18	0x3ee166bc	0.44023693
19	0xbf0ffc02	-0.5624391
20	0x3e1030f9	0.14081182
21	0x3b245850	0.0025077052
22	0x3ea19126	0.31556052
23	0xbe9a0ae3	-0.3008643
24	0x3f0a6996	0.5406736
25	0xbe8ab8da	-0.27094156
26	0x3ea56b8d	0.32308617
27	0x3e8bf3a2	0.27334315
28	0xbdd4bd91	-0.103877194
29	0xbcb7b0fb	-0.022423258
30	0xbf231e2f	-0.6371793
31	0xbed0ac3e	-0.4075641
32	0x3de5ba71	0.112172015
33	0x3e2efd42	0.17088798
34	0x3efe6c69	0.49692085
35	0x3e96def9	0.2946699
36	0xbe03c405	-0.12867744
37	0xbf10ea3f	-0.5660743
38	0xbefa7aea	-0.489219
39	0x3e8bf5b3	0.2733589
40	0xbf06495a	-0.52455676
41	0x3e850b98	0.25985408
42	0x3e86f302	0.26357275
43	0xbd677081	-0.056503776
44	0xbd9ab8d7	-0.07554787
45	0xbdacc176	-0.08435337
46	0x3ef3bae3	0.4760352
47	0x3efad443	0.48990068
48	0xbd57743d	-0.052601088
49	0x3c196819	0.009363198
50	0xbeaaa2f9	-0.33327463
51	0x3d501ca8	0.05080858
52	0x3e9feef8	0.31237006
53	0x3e959c38	0.29220748
54	0xbde41809	-0.11137397
55	0x3e82b824	0.25531113
56	0xbdf5a7d5	-0.11994902
57	0x3dda8d0e	0.10671435
58	0x3d69125d	0.05690228
59	0xbee2fb10	-0.4433217
60	0xbf1a1b93	-0.60198325
61	0x3e38de8e	0.18053648
62	0xbeb29a6e	-0.34883446
63	0x3eb0df26	0.3454525
64	0x3f0c2175	0.5473855
65	0x3e970245	0.2949392
66	0x3eadfac2	0.33980376
67	0x3f348db0	0.705287
68	0x3e8d1f21	0.27562812
69	0x3d81c8e7	0.06337147
70	0xbecb1f4d	-0.39672318
71	0x3eb7e845	0.35919395
72	0xbe4522c0	-0.19251537
73	0xbec07c97	-0.37595055
74	0x3f087270	0.5329962
75	0xbda82b3c	-0.08211371
76	0x3e9aac26	0.30209464
77	0x3f0a0855	0.53918964
78	0x3ecf9a43	0.4054738
79	0x3ed2b5b8	0.41154265
80	0x3d0a4bcb	0.033763688
81	0xbec23ed7	-0.37938568
82	0x3e12e8d2	0.14346626
83	0x3ec7cdee	0.390243
84	0x3ee4d173	0.44691047
85	0x3ecaf4a6	0.39639777
86	0x3e89e1cb	0.2693008
87	0xbe5878a0	-0.21139765
88	0xbecd1a30	-0.40059042
89	0x3f0baef1	0.54563814
90	0xbee65625	-0.44987598
91	0x3e5d832b	0.21632068
92	0x3e6e471f	0.23269318
93	0xbeb84fd8	-0.35998416
94	0x3df45ed8	0.119321525
95	0xbec44481	-0.38333514

encoder1.conv.0.bias f4 [32]
0	0xbec87a86	-0.39155978
1	0xbed83fab	-0.42236075
2	0xbe39bc4a	-0.18138233
3	0xbefb213b	-0.4904879
4	0xbf0e0a0b	-0.55484074
5	0x3e9033e3	0.28164586
6	0xbe43c14e	-0.19116709
7	0xbf089932	-0.5335876
8	0xbec27d04	-0.37986004
9	0xbeef8bc4	-0.4678632
10	0xbef59c79	-0.47970942
11	0x3c962b9d	0.018331343
12	0xbe9b7bee	-0.30367988
13	0xbe806f61	-0.25084975
14	0x3eea6597	0.45780632
15	0xbe956f44	-0.2918645
16	0xbd8365df	-0.06415915
17	0x3e5bd4c1	0.21467878
18	0x3ee98b79	0.45614222
19	0x3ef533a4	0.4789096
20	0xbe228ef1	-0.1587484
21	0xbe3e564e	-0.1858761
22	0xbf0a04f5	-0.53913814
23	0x3f04eca7	0.519236
24	0xbd6ce22e	-0.05783289
25	0x3ebc5321	0.36782172
26	0xbeb689d2	-0.35652024
27	0x3dffd928	0.12492591
28	0xbdf43fa4	-0.11926201
29	0x3ea59605	0.32341018
30	0x3ea34f80	0.3189659
31	0xbe3d1001	-0.18463136

encoder1.conv.1.weight f4 [32]
0	0x3f6bf3a5	0.9216865
1	0x3f758f7c	0.95922065
2	0x3f74847f	0.95514673
3	0x3f7e8751	0.99425226
4	0x3f68d979	0.90956837
5	0x3f89ee98	1.0775938
6	0x3f838f9b	1.02782
7	0x3f981b48	1.1883326
8	0x3f71dfcb	0.94482106
9	0x3f6aebbc	0.9176595
10	0x3f7332e3	0.9499952
11	0x3f663990	0.89931583
12	0x3f65f280	0.8982315
13	0x3fa11012	1.2583029
14	0x3f6ae1a3	0.91750544
15	0x3f6cce3c	0.9250219
16	0x3f76ee6d	0.9645756
17	0x3f5b876b	0.85753506
18	0x3f6f46f5	0.93467647
19	0x3f74ded2	0.95652497
20	0x3f69cded	0.9132984
21	0x3f72b502	0.94807446
22	0x3f6502e1	0.8945752
23	0x3f8356b6	1.0260837
24	0x3f88a901	1.0676576
25	0x3f6d5447	0.9270672
26	0x3f6fd2f6	0.93681276
27	0x3f80feb9	1.0077735
28	0x3f6b67cd	0.9195526
29	0x3f8004c5	1.0001456
30	0x3f8b3ebe	1.0878522
31	0x3f71197a	0.941795

encoder1.conv.1.bias f4 [32]
0	0xbd20669a	-0.03916035
1	0x3e2f394f	0.17111705
2	0x3bc4bd72	0.006004029
3	0xbd03e21a	-0.03219805
4	0xbca8aa87	-0.020589126
5	0x3d2da231	0.042391006
6	0xbc0575cc	-0.008145761
7	0x3d36ee3a	0.044660784
8	0xbd1403bc	-0.036136374
9	0x3cf5f1a1	0.030022444
10	0xbcd20251	-0.02563587
11	0xbd61938e	-0.05507236
12	0xbdd476f9	-0.10374255
13	0x3f150d43	0.5822336
14	0xbce97512	-0.028498206
15	0xbbe5bba9	-0.007010896
16	0xbc646e80	-0.013942361
17	0xbd56b7cd	-0.05242138
18	0x3b104a5b	0.0022016976
19	0x3c5c6822	0.013452562
20	0xbc5d0fb1	-0.013492511
21	0xbd74d6c8	-0.059775144
22	0xbd0ee69c	-0.034887895
23	0x3e020cdc	0.12700218
24	0x3cd5622d	0.02604779
25	0xbd0c802e	-0.03430193
26	0x3b6ab975	0.0035816107
27	0xbba97942	-0.0051719258
28	0xbd5cc2b0	-0.053896606
29	0xbba217c6	-0.0049466817
30	0x3c95daca	0.018292803
31	0xbc24a141	-0.010048212

encoder1.conv.1.running_mean f4 [32]
0	0xbec5d8ae	-0.38641876
1	0xbed8b0e9	-0.42322472
2	0xbe381899	-0.17978133
3	0xbef9b4bc	-0.48770702
4	0xbf0f6b3d	-0.5602301
5	0x3e904923	0.281808
6	0xbe42a3f7	-0.1900786
7	0xbf09096b	-0.53529996
8	0xbec0183a	-0.37518483
9	0xbeedb9c9	-0.46430805
10	0xbef88ed7	-0.48546478
11	0x3ccc5d27	0.024946762
12	0xbe9f7c00	-0.31149292
13	0xbe80ec23	-0.25180158
14	0x3eea750b	0.45792422
15	0xbe927c9c	-0.28610694
16	0xbd88f68f	-0.06687652
17	0x3e60132e	0.21882316
18	0x3eea1633	0.45720062
19	0x3ef48a87	0.47761938
20	0xbe278532	-0.16359404
21	0xbe35e4c6	-0.17763051
22	0xbf07ba2e	-0.5301846
23	0x3f051bb2	0.51995385
24	0xbd77228e	-0.06033569
25	0x3ebec9e3	0.37263402
26	0xbeb3b031	-0.3509536
27	0x3e0165b3	0.12636451
28	0xbde567ef	-0.112014644
29	0x3ea54ab2	0.3228355
30	0x3ea3e632	0.32011563
31	0xbe4194f0	-0.18904471

encoder1.conv.1.running_var f4 [32]
0	0x3eef3324	0.46718705
1	0x3a13c2e5	0.00056366465
2	0x3d8a60b4	0.06756726
3	0x3a9f30c8	0.0012145275
4	0x3eed8956	0.46393842
5	0x3c0f3b0e	0.008742107
6	0x3b19a99b	0.002344704
7	0x3b20c39e	0.002453066
8	0x3e7f3a88	0.24924672
9	0x3c94a42f	0.018144695
10	0x3f22e50e	0.6363076
11	0x3f2b259c	0.6685426
12	0x3f818492	1.0118582
13	0x38f2bcff	0.000115746625
14	0x3c693d73	0.014235842
15	0x3f12303e	0.5710486
16	0x3dd1b7e5	0.10240153
17	0x3e9fd855	0.31219736
18	0x3a1e277c	0.00060331053
19	0x3d7aa9bd	0.06119703
20	0x3ed76348	0.42067933
21	0x3f81db2d	1.0145012
22	0x3fa157ae	1.2604883
23	0x3b1b5b24	0.0023705447
24	0x3c59968c	0.013280522
25	0x3ed8dbc2	0.42355162
26	0x3f06a6de	0.5259837
27	0x3cf7c915	0.03024725
28	0x3f638e23	0.8888876
29	0x3c8a791c	0.016903453
30	0x3c2ebc29	0.010664978
31	0x3e8c1dae	0.27366394

encoder1.conv.3.weight f4 [32, 32, 3]
0	0xbda5b03b	-0.08090254
1	0xbd99356c	-0.074808925
2	0x3846262e	4.7242436e-05
3	0x3ddeed08	0.10885054
4	0xbcb3c3eb	-0.021944007
5	0xbdf5bb6b	-0.11998638
6	0xbd07ca28	-0.033151776
7	0x3d31d573	0.04341645
8	0x3d41873a	0.047248103
9	0x3a603ff0	0.00085544493
10	0x3d163289	0.036669288
11	0xbc6a7838	-0.014310889
12	0x3d7c91c7	0.06166246
13	0x3c19c11a	0.009384418
14	0x3d0050a3	0.0313269
15	0xbd54121f	-0.051775094
16	0xbd23924b	-0.039934438
17	0x3d8aba4f	0.06773817
18	0xbdbfd92a	-0.09367593
19	0xbdf54101	-0.11975289
20	0x3d49857d	0.04919957
21	0xbe10c9f8	-0.14139545
22	0xbdd85210	-0.10562527
23	0x3d459e06	0.048246406
24	0xbd918e48	-0.07107216
25	0xbd75882c	-0.059944317
26	0xbd710575	-0.058843095
27	0x383d3b1d	4.5116165e-05
28	0xbd6b4ec8	-0.05744818
29	0x3c9c7405	0.019098291
30	0x3cd8ee99	0.02648096
31	0x3db8f343	0.090307735
32	0xbd7f19f4	-0.06228061
33	0x3d0220bd	0.031769503
34	0xbd3b6a42	-0.045755632
35	0xbd4f005b	-0.05053745
36	0xbbfeed02	-0.0077797184
37	0x3db3fea9	0.08788807
38	0xbdc141b6	-0.094363615
39	0xbc6695fa	-0.014073843
40	0xbe4d6fb9	-0.2006215
41	0x3ce48fb9	0.027900564
42	0xbd125ad1	-0.03573114
43	0x3c4fc43d	0.012681064
44	0x3bf4ae68	0.00746708
45	0xbbbbac28	-0.0057273097
46	0x3dd745fb	0.105113946
47	0x3b706017	0.0036678368
48	0xbc54828b	-0.012970577
49	0x3d2d2c3b	0.04227851
50	0x3d3b7463	0.045765292
51	0x3d2ef060	0.04270971
52	0xbd34c2d6	-0.044131123
53	0xbda8626f	-0.082219
54	0xbb8b3dd5	-0.0042493143
55	0xbd046806	-0.032325767
56	0x3d53462c	0.051580593
57	0xbd84fb47	-0.0649324
58	0xbd709284	-0.05873348
59	0x3d86c5e4	0.065807134
60	0xbc94e2c3	-0.018174535
61	0x3d1f3a60	0.03887403
62	0x3c9734c0	0.01845777
63	0x3df317d9	0.11869783
64	0x3d94283f	0.07234239
65	0x3c9eb199	0.019371795
66	0xbc57e1b8	-0.013176374
67	0xbd850202	-0.064945236
68	0xbdadd86e	-0.08488546
69	0x3db11f4a	0.08648546
70	0xbb131f00	-0.0022448897
71	0xbe19fec0	-0.15038586
72	0x3e10f610	0.14156365
73	0x3ce1f8a4	0.027584381
74	0xbe2a7215	-0.16645081
75	0x3de8ea3f	0.11372804
76	0x3d441192	0.04786832
77	0x3d409cc4	0.047024503
78	0x3dba2aa4	0.09090164
79	0x3cd95c62	0.02653331
80	0x3b94635f	0.0045284475
81	0x3db98fbf	0.090606205
82	0xbc84554c	-0.016153954
83	0x3ca7c3a8	0.020479038
84	0xbd4ca146	-0.04995849
85	0x3d8e7665	0.06956176
86	0xbc37b2aa	-0.01121203
87	0x3dd68d6d	0.104761936
88	0x3dc321f7	0.09527963
89	0xbda5b741	-0.080915935
90	0x3e07b60d	0.1325304
91	0x3db5c7e2	0.08876015
92	0xbd375f39	-0.044768546
93	0xbd1043e6	-0.035221003
94	0x3db4186f	0.08793723
95	0xbd442fd3	-0.04789717
96	0x3e047b3d	0.12937637
97	0xbd76ea7f	-0.060282227
98	0xbdb6f7d5	-0.08933989
99	0x3d608a2a	0.054819264
100	0x3d0b9138	0.03407404
101	0xbdf9c3ce	-0.1219555
102	0xbcc39d61	-0.023878755
103	0x3d4e0e19	0.050306413
104	0xbe23f007	-0.16009532
105	0x3d255e8e	0.040373378
106	0x3de79d19	0.11309261
107	0x3c833ee4	0.0160212
108	0xbd28eeb9	-0.04124329
109	0xbcbb918d	-0.022896552
110	0xbd1636fc	-0.03667353
111	0xbd601671	-0.0547089
112	0xbdb12f4f	-0.086516015
113	0xbe22e64c	-0.15908164
114	0x3dc8020b	0.09766015
115	0x3d1f63dc	0.038913593
116	0xbe423f20	-0.18969393
117	0x3c7ba052	0.015358048
118	0x3e6dd91c	0.23227352
119	0xbde4cbf9	-0.11171717
120	0x3b857e38	0.0040738843
121	0x3da34aad	0.07973228
122	0xbd90e97e	-0.07075785
123	0x3df1c398	0.11804885
124	0x3d4ed880	0.05049944
125	0xbdb6718d	-0.08908377
126	0xbdd2b00b	-0.10287484
127	0xbd2c3dfd	-0.042051304
128	0x3d5d5f8e	0.054046206
129	0xbd846e7f	-0.06466388
130	0xbd986190	-0.074404836
131	0x3b7d73b9	0.0038673712
132	0xb9a22f25	-0.00030934173
133	0xbd906a4d	-0.07051525
134	0xbd8241af	-0.063601844
135	0x3dc4ee34	0.09615746
136	0x3d10560a	0.035238303
137	0xbe586e75	-0.21135886
138	0xbb1eb6c7	-0.002421783
139	0x3bdac676	0.0066764904
140	0xbe0d7637	-0.13814627
141	0x3de9b90f	0.1141225
142	0x3caf8c54	0.021429218
143	0x3d34c5d6	0.044133984
144	0x3c9fd572	0.019510958
145	0xbd8fb7d0	-0.07017481
146	0xbcd77cec	-0.026304685
147	0xbd86e90f	-0.06587421
148	0x3b3bcdfd	0.0028656714
149	0xbd91fdca	-0.071284845
150	0xbd8fe851	-0.07026733
151	0x3d8545a7	0.06507426
152	0x3ce76f38	0.028251275
153	0x3d9bb613	0.07603087
154	0xbd127ea0	-0.03576529
155	0xbd7927ca	-0.06082896
156	0xbdbfe220	-0.09369302
157	0xbdc66bc2	-0.09688522
158	0xbdcd77f1	-0.10032643
159	0x3d28cc7d	0.04121064
160	0x3d96879f	0.073500864
161	0xbd5f37ef	-0.0544967
162	0x3de205b0	0.11036241
163	0xbc51a301	-0.012795211
164	0xbc862721	-0.01637608
165	0xbd141992	-0.0361572
166	0x3db9f621	0.090801485
167	0xbdc97c8c	-0.098382086
168	0x3d20f6ca	0.039297856
169	0xbdb036ca	-0.086042
170	0xbcee8db5	-0.029120306
171	0x3c0ea0c5	0.008705323
172	0xbd6ce49f	-0.057835218
173	0xbda79744	-0.081831485
174	0xbc3e6fa9	-0.011623302
175	0x3d97c5bf	0.07410764
176	0xbd33b5d0	-0.04387456
177	0x3cd3a169	0.025833802
178	0xbd19e258	-0.037569374
179	0x3d8120ee	0.06305109
180	0xbcce70d1	-0.02520028
181	0x3db344b5	0.08753339
182	0x3cf552e7	0.029946757
183	0x3c9cc17b	0.019135227
184	0xbd26fa97	-0.040766325
185	0x3db26d0d	0.08712206
186	0xbd657a52	-0.056024857
187	0xbdb0467f	-0.08607196
188	0x3c4a205e	0.0123368185
189	0xbdb63cf4	-0.08898345
190	0x3d126a19	0.035745714
191	0x3d61811b	0.055054765
192	0x3c7672eb	0.015042047
193	0xbe122895	-0.14273293
194	0x3c91f14b	0.017815253
195	0x3cb8a7bb	0.022540918
196	0xbc9520d4	-0.01820413
197	0xbde3a338	-0.11115116
198	0xbd91de39	-0.07122464
199	0xbe1a21fd	-0.15052028
200	0xbd0b7f7e	-0.034057133
201	0xbd7a6818	-0.061134428
202	0x3b9bff37	0.0047606486
203	0x3d9ae604	0.07563403
204	0x3b764f65	0.0037583944
205	0xbc6b31e5	-0.0143551575
206	0x3d480bba	0.04883931
207	0x3c85f1ec	0.016350709
208	0x3cb88aef	0.022527186
209	0xbd1afeab	-0.037840527
210	0xbba6a899	-0.0050860164
211	0xbd098f43	-0.03358389
212	0x3cf79740	0.030223489
213	0xbd22b0e2	-0.03971947
214	0x3dc4b3d6	0.096046135
215	0x3d4fc6b8	0.050726622
216	0xbd7e2a6f	-0.062052187
217	0xbd99a47c	-0.07502076
218	0xbdd35d58	-0.10320538
219	0xbdd54eff	-0.10415458
220	0xbd6caa2b	-0.057779472
221	0xbc45be4d	-0.012069297
222	0xbd909cb7	-0.07061141
223	0x3d49d81c	0.049278364
224	0x3d1e55ac	0.03865592
225	0xbe1732df	-0.147655
226	0x3c28ff8a	0.0103148315
227	0xbdf28bc5	-0.11843065
228	0x3d907886	0.07054238
229	0xbc7078fc	-0.014677282
230	0xbda4ac35	-0.080406584
231	0x3c5cc877	0.013475529
232	0xbd904102	-0.07043649
233	0x3d7a772c	0.061148807
234	0xbb3ecb27	-0.0029112787
235	0xbdeec7b3	-0.11659183
236	0xbc0c5289	-0.0085646
237	0xbd9f01dc	-0.077640265
238	0xbbd3c74b	-0.0064629666
239	0xbc9b8a5e	-0.018986877
240	0xbd35a7f6	-0.044349633
241	0xbde6e5c6	-0.112742946
242	0x3cfe24d9	0.03102343
243	0x3d1dbbb2	0.03850908
244	0xbdb431ce	-0.08798562
245	0xbe1f6984	-0.15567595
246	0xbd0b842a	-0.03406159
247	0xbda6676b	-0.08125194
248	0x3992fbcd	0.00028034896
249	0x3cdd98dd	0.02705043
250	0xbc5a8638	-0.013337664
251	0xbde2babe	-0.110707745
252	0x3c4698d2	0.012121396
253	0x3da228e4	0.079179555
254	0x3d6b8ef1	0.057509366
255	0xbe159168	-0.1460625

encoder1.conv.3.bias f4 [32]
0	0x3da29371	0.079382785
1	0x3cba6482	0.022753004
2	0xbdb4e078	-0.088318765
3	0xbdc462d3	-0.09589162
4	0x3da115f8	0.07865518
5	0x3b8b9073	0.004259163
6	0x3d9fe859	0.07807989
7	0xbc0a1a8f	-0.008429184
8	0xbccb6cf4	-0.024832226
9	0xbd2b6e4b	-0.04185323
10	0x3d876634	0.066112906
11	0xbcabedfb	-0.020987501
12	0xbd31281f	-0.043251153
13	0x3d661fe8	0.056182772
14	0xbcfce13a	-0.030869115
15	0xbd311023	-0.04322828
16	0xbd7de696	-0.061987482
17	0xbd6d7cf5	-0.057980496
18	0x3d309bd2	0.04311735
19	0x3db007a8	0.0859521
20	0x3dad39b1	0.084582694
21	0x3c792422	0.015206369
22	0xbdaa3641	-0.08311129
23	0x3d4356ef	0.04769033
24	0xbd5a035d	-0.053225864
25	0xbd5ec1a1	-0.054383878
26	0xbd2ccb81	-0.042186264
27	0xbd4cadfa	-0.049970604
28	0x3dacfa7b	0.08446213
29	0x3d455d91	0.048184935
30	0xbd590883	-0.052986633
31	0xbd6483fa	-0.055789925

encoder1.conv.4.weight f4 [32]
0	0x3f8f117f	1.1177214
1	0x3f83b29e	1.0288885
2	0x3f7e8287	0.9941792
3	0x3f7518a0	0.957407
4	0x3f6c0c15	0.92205936
5	0x3f84dc03	1.0379642
6	0x3f7f2127	0.9965996
7	0x3f6fc306	0.9365696
8	0x3f6c8010	0.9238291
9	0x3f716737	0.9429812
10	0x3f840c45	1.0316244
11	0x3f67c7be	0.9053916
12	0x3f70806b	0.9394595
13	0x3f76a437	0.9634432
14	0x3f889171	1.0669385
15	0x3f791b76	0.9730753
16	0x3f727a93	0.94718283
17	0x3f7e5be0	0.9935894
18	0x3f728574	0.94734883
19	0x3f71fb85	0.94524413
20	0x3f779919	0.96717983
21	0x3f597364	0.849417
22	0x3f74f37e	0.9568404
23	0x3f6cf6f4	0.9256432
24	0x3f83e67f	1.0304717
25	0x3f6bdc73	0.92133254
26	0x3f81a59d	1.0128666
27	0x3f7b434b	0.98149556
28	0x3f6fb449	0.9363447
29	0x3f644d98	0.891809
30	0x3f6b86f8	0.9200282
31	0x3f65bd58	0.8974204

encoder1.conv.4.bias f4 [32]
0	0x3deadb88	0.114676535
1	0xbd476f05	-0.04868986
2	0x3cd92b74	0.026509978
3	0x3d20949b	0.03920422
4	0x3dd05f74	0.10174456
5	0x3c3ee412	0.011651056
6	0x3d5a16bd	0.05324434
7	0xbdd289d9	-0.102801986
8	0xbd37cdef	-0.044874128
9	0xbd721550	-0.059102356
10	0xbd007017	-0.031356897
11	0xbde57910	-0.112047315
12	0xbd4e43a7	-0.050357487
13	0x3aeabf55	0.0017909805
14	0x3dd9377f	0.10606288
15	0x3d2f95e8	0.04286757
16	0x3ddca6a6	0.10773973
17	0xbd55ca18	-0.052194685
18	0xbc50d782	-0.012746694
19	0x3d8d56f2	0.06901349
20	0xbd9aefd5	-0.075652756
21	0x3d5ab1d7	0.053392258
22	0xbd2bd8b1	-0.0419547
23	0xba2d4591	-0.00066097925
24	0x3d1189ed	0.035531927
25	0x3c14fbe4	0.0090932585
26	0x3d0457ed	0.032310415
27	0x3bc33242	0.005956919
28	0x3dafd154	0.08584848
29	0xbd8b287b	-0.067948304
30	0xba4c5f26	-0.00077961606
31	0xbddbae4a	-0.107266024

encoder1.conv.4.running_mean f4 [32]
0	0xbd31373e	-0.043265574
1	0xbe6f7e3a	-0.23387995
2	0xbf4c747c	-0.7986524
3	0xbe291e8a	-0.16515556
4	0xbd9e4cbf	-0.07729482
5	0x3e4b808a	0.19873253
6	0xbd08b92a	-0.03337971
7	0x3ead19ad	0.33808652
8	0x3d9f8f6d	0.07791028
9	0xbf151045	-0.5822795
10	0xbe234d27	-0.159474
11	0x3eab1df4	0.3342129
12	0xbf4a9d76	-0.79146516
13	0xbe9c397f	-0.30512616
14	0xbd909a89	-0.07060725
15	0xbe6a7fac	-0.22900265
16	0xbe16f090	-0.14740205
17	0xbda98279	-0.08276839
18	0xbe01fe2f	-0.1269462
19	0xbe179ebe	-0.14806649
20	0x3ec6625f	0.38746926
21	0xbe9fedca	-0.31236106
22	0xbe21cd1e	-0.15800902
23	0x3e5161a7	0.20447408
24	0xbea911ab	-0.33021292
25	0xbea86ceb	-0.32895598
26	0x3e653aa5	0.22385652
27	0xbe580042	-0.21093848
28	0x3e02713e	0.12738511
29	0x3e305bc7	0.1722251
30	0xbf03e82b	-0.51526135
31	0x3eefded1	0.46849683

encoder1.conv.4.running_var f4 [32]
0	0x3e9d32ba	0.30702764
1	0x3e328dfd	0.17436977
2	0x40400918	3.000555
3	0x3f037b8b	0.51360387
4	0x3d83e322	0.064398065
5	0x3ee938e5	0.4555122
6	0x3e00c578	0.12575328
7	0x3f4aff5e	0.7929591
8	0x3e1c2ccb	0.15251462
9	0x3f30e15c	0.6909387
10	0x3eb23208	0.34803796
11	0x3fe092b3	1.7544769
12	0x3fa85faa	1.3154194
13	0x3f91bbe7	1.1385468
14	0x3d3143fa	0.043277718
15	0x3e62f849	0.22165026
16	0x3f862b7b	1.0482019
17	0x3f02e562	0.5113126
18	0x3e2b103e	0.16705415
19	0x3f69cd5b	0.9132897
20	0x3fbb8ad8	1.4651747
21	0x3f3b0c18	0.7306533
22	0x3f69e1d1	0.91360193
23	0x3f1f7d10	0.62300205
24	0x3e517f59	0.20458736
25	0x3eb5c3b7	0.3550088
26	0x3e3fc42b	0.18727176
27	0x3f442247	0.76614803
28	0x3f4694ce	0.7757081
29	0x3f6ff74b	0.93736714
30	0x3fade97d	1.358688
31	0x3f2be7b6	0.6715044

encoder1.res_conv.weight f4 [32, 1, 1]
0	0x3f19e95f	0.6012172
1	0xbe2a8609	-0.16652693
2	0xbf69faa5	-0.9139808
3	0x3f741ef1	0.9535971
4	0xbf26f1f8	-0.65212965
5	0x3f45cd59	0.7726646
6	0x3df8420d	0.12121973
7	0xbda254e6	-0.07926349
8	0x3f399f84	0.72509027
9	0x3f6c45e2	0.9229413
10	0xbf2092f1	-0.62724215
11	0xbf00ec87	-0.5036091
12	0x3f307134	0.68922734
13	0x3f5dd26f	0.8664922
14	0x3dea7df3	0.11449804
15	0xbf0d91c0	-0.5530052
16	0x3f11d1d3	0.5696079
17	0x3f1a42cf	0.6025819
18	0xbedf8393	-0.4365507
19	0x3e85b84a	0.26117164
20	0x3f12cedf	0.5734691
21	0x3ec7ddab	0.39036307
22	0x3ef5baaf	0.4799399
23	0x3eb5906b	0.35461745
24	0x3e0e0858	0.1387037
25	0xbe6baa68	-0.23014224
26	0xbf1dd48f	-0.61652464
27	0x3f5f0fb3	0.8713333
28	0x3f07692a	0.5289484
29	0xbda73ecc	-0.081662744
30	0x3f7ada9c	0.9798982
31	0x3f56b4ad	0.8386944

encoder1.res_conv.bias f4 [32]
0	0x3f18fbb3	0.5975906
1	0xbf0c95f6	-0.5491632
2	0xbf414b5d	-0.7550562
3	0xbdc6b9e5	-0.09703425
4	0x3f06ee17	0.52707046
5	0x3ee99802	0.45623785
6	0x3e74dc37	0.2391213
7	0xbe58225a	-0.21106854
8	0x3ee84152	0.45362335
9	0xbf4c1704	-0.7972262
10	0xbf3c9ed8	-0.73679876
11	0xbee7bc04	-0.45260632
12	0xbf80444d	-1.0020844
13	0x3bc4b9d0	0.006003596
14	0x3ec4be4a	0.3842643
15	0x3f1bed1f	0.60908693
16	0x3f2985a4	0.66219544
17	0x3e8a44bc	0.27005565
18	0xbf2eb473	-0.68244094
19	0x3e6e656b	0.23280875
20	0xbe48c8fb	-0.19607918
21	0x3f5a6022	0.8530294
22	0x3d667086	0.056259654
23	0x3f10d7f0	0.56579494
24	0xbeb0e89a	-0.3455246
25	0x3f05c1d8	0.5224891
26	0x3ed511ab	0.41615042
27	0xbe68c6f5	-0.22732146
28	0x3ee6b879	0.45062616
29	0x3dbc8a0d	0.092060186
30	0xbf0365b8	-0.51327085
31	0xbf06ca91	-0.5265284

encoder2.conv.0.weight f4 [64, 32, 3]
0	0xbe895ba4	-0.2682773
1	0x3df3543e	0.11881302
2	0xbd0df9e0	-0.034662127
3	0xbd252685	-0.04031994
4	0x3df0f8df	0.117662184
5	0xbd627391	-0.055285994
6	0x3bac95b1	0.005266868
7	0xbd749b42	-0.059718378
8	0xbda9aae9	-0.08284552
9	0x3cc22809	0.02370073
10	0xbd9b2951	-0.0757624
11	0xbd3b54cb	-0.04573516
12	0xbd89652f	-0.06708752
13	0xbd1e6968	-0.038674742
14	0x3d9eefd9	0.07760591
15	0x3d20e92f	0.03928488
16	0x3c932f1d	0.017966801
17	0xbc926011	-0.017868074
18	0xbde1a34a	-0.11017473
19	0xba28d5a7	-0.0006440528
20	0x3bc9a8ea	0.0061541693
21	0xbdb2951e	-0.08719848
22	0x3d973b2f	0.07384335
23	0x3d015d35	0.03158303
24	0xbd94246d	-0.0723351
25	0x3c1cc236	0.009567788
26	0x3cee4dda	0.029089857
27	0x3c9cf6a8	0.019160584
28	0xbd00f301	-0.031481747
29	0x3b767864	0.003760838
30	0xbca6a342	-0.02034152
31	0xbd587bff	-0.052852627
32	0x3cf63e88	0.030059114
33	0x3dc46e7f	0.09591388
34	0xbd76c3f1	-0.060245458
35	0x3d289088	0.04115346
36	0x3db685dc	0.089122504
37	0x3c6de204	0.014519218
38	0xbdae650d	-0.08515368
39	0x3a948319	0.0011330574
40	0x3dba6197	0.09100645
41	0xbd86d43c	-0.06583449
42	0x3e145a00	0.14487457
43	0xbd2bfb1f	-0.041987535
44	0xbdd3180b	-0.1030732
45	0xbda17c75	-0.078850664
46	0x3deaeb62	0.11470677
47	0xbd95d36f	-0.073157184
48	0x3e0c0622	0.13674214
49	0xbc2138c4	-0.009840194
50	0x3d39d9b0	0.04537362
51	0xbd9ca26b	-0.07648166
52	0x3d24563e	0.04012131
53	0x3d4736ca	0.048636235
54	0xbd4b6cd5	-0.049664337
55	0xbd824522	-0.06360842
56	0xbd080e2f	-0.03321665
57	0x3e16ede1	0.14739181
58	0xba951dc9	-0.0011376675
59	0x3d944078	0.07238859
60	0xbbcca17b	-0.006244836
61	0xbdb3e976	-0.087847635
62	0xbdbc6629	-0.09199173
63	0xbd972d6a	-0.07381709
64	0x3d4aced3	0.04951365
65	0xbb30a25c	-0.0026952242
66	0x3ddc5521	0.107584246
67	0xbb87ec29	-0.0041480255
68	0x3db0e7e9	0.08637983
69	0xbdd26a53	-0.10274186
70	0xbd8a398f	-0.0674926
71	0xbcd714b6	-0.026254993
72	0x3d62360a	0.055227317
73	0x3db5410b	0.088502966
74	0xbe561106	-0.20904931
75	0xbc38dd36	-0.01128321
76	0x3d05da51	0.032678906
77	0xbdaeb945	-0.08531431
78	0x3d399712	0.045310088
79	0x3c862d87	0.016379131
80	0xbd650a31	-0.055917922
81	0x3d13d1e8	0.036088854
82	0xbdb97d2c	-0.09057078
83	0x3c07ed6d	0.008296353
84	0xbbee31c0	-0.0072691143
85	0x3d0be1f7	0.034151044
86	0xbd3b1653	-0.045675587
87	0xbc917afa	-0.017758835
88	0x3d49a5c0	0.049230337
89	0xbd6beea5	-0.057600636
90	0x3d073af5	0.03301521
91	0x3cd75fa6	0.026290726
92	0xbcffc0e1	-0.031219902
93	0x3c27d1d6	0.0102429
94	0xbda890c7	-0.08230739
95	0x3d2f4e11	0.04279906
96	0xbc982b46	-0.018575322
97	0xbda40e01	-0.080104835
98	0x3d5b53bd	0.053546656
99	0xbd415aa8	-0.047205597
100	0x3dd7a58e	0.10529624
101	0xbe99a5d6	-0.30009335
102	0x3dbb0e40	0.09133577
103	0xbda7c681	-0.081921585
104	0x3db22649	0.086987086
105	0xbd961b59	-0.07329435
106	0xbc551001	-0.013004304
107	0x3df49763	0.11942937
108	0xbd427c17	-0.047481623
109	0x3d332559	0.04373679
110	0xbdb92f63	-0.090422414
111	0x3d8d248e	0.06891738
112	0xbd4b099c	-0.04956971
113	0x3d53dfaa	0.051726975
114	0x3c8219a0	0.01588136
115	0xbda16988	-0.078814566
116	0xbc53fac2	-0.012938203
117	0x3d40eebe	0.047102682
118	0x3da52d0b	0.08065232
119	0xbd3e8435	-0.0465128
120	0xbc62fec9	-0.013854691
121	0xbde62d50	-0.112391114
122	0x3d05153c	0.032490954
123	0xbbdc1960	-0.006716892
124	0xbd163ab2	-0.03667707
125	0xbd6637cf	-0.056205567
126	0x3d078816	0.033088766
127	0x3ccb69af	0.024830667
128	0x3d2a2359	0.041537616
129	0xbcdad91c	-0.026714854
130	0xbdbdc07a	-0.092652276
131	0xbdf62836	-0.120193884
132	0xbd6a8e72	-0.057264753
133	0x3d1a2684	0.037634388
134	0x3c913784	0.017726667
135	0xbcf6f844	-0.03014768
136	0xbcd39430	-0.025827497
137	0xbcdbfcf1	-0.02685401
138	0xbd305cfe	-0.043057434
139	0xbe144c72	-0.14482287
140	0x3d2a5e1a	0.04159365
141	0x3c3c47b3	0.011491704
142	0xbd041300	-0.032244682
143	0x3db547ed	0.088516094
144	0x3d391563	0.04518641
145	0xbcb721ba	-0.02235495
146	0xbd81a728	-0.06330711
147	0x3cb4fa14	0.022091903
148	0x3c7e16be	0.015508352
149	0x3dd24c5d	0.102684714
150	0x3d43387b	0.047661286
151	0x3d719c93	0.05898721
152	0x3d60f699	0.054922674
153	0x3d7fe481	0.062473778
154	0xbd1ae153	-0.037812542
155	0xbc2ba189	-0.010475525
156	0x3d77e640	0.060522318
157	0xbd1961d6	-0.03744682
158	0xbdda8c72	-0.10671319
159	0xbb8e37c8	-0.0043401457
160	0xbdaf0b06	-0.085470244
161	0xbd590fa5	-0.052993435
162	0x3d5fe6b0	0.05466336
163	0x3ca70e87	0.02039267
164	0xbbe8454c	-0.007088339
165	0x3d0744d9	0.033024643
166	0xbd32bea3	-0.043638837
167	0xbe0f0e25	-0.1397024
168	0xbdc6b339	-0.09702153
169	0xbb61359e	-0.0034364234
170	0x3cc6390d	0.024197126
171	0x3d2770bb	0.040878993
172	0xbcb5f973	-0.022213673
173	0xbd863be9	-0.06554396
174	0xbdb17551	-0.086649545
175	0xbd48e6b5	-0.049048144
176	0xbe0ad8f3	-0.13559322
177	0xbda1d38c	-0.079016775
178	0x3d23806e	0.039917402
179	0xbdc36353	-0.09540429
180	0xbcb08777	-0.02154897
181	0x3dbe3eb5	0.09289304
182	0xbba887d3	-0.0051431446
183	0xbd5771b6	-0.052598678
184	0xbd08fd0f	-0.03344446
185	0x3dc5cf34	0.096586615
186	0xbce408e1	-0.027836265
187	0xbce0417c	-0.027374975
188	0x3d930140	0.07177973
189	0xbd650685	-0.05591442
190	0xbd45fa87	-0.048334625
191	0xbd0e4132	-0.034730144
192	0xbd87912f	-0.066194884
193	0xbca11766	-0.019664478
194	0x3d85d24f	0.06534254
195	0xbc2e52e7	-0.010639883
196	0x3d9f7494	0.077859074
197	0x3e052c7c	0.1300525
198	0xbd390604	-0.045171753
199	0xbd63cdf9	-0.055616353
200	0x3d012302	0.031527527
201	0x3ced6f81	0.028983833
202	0x3ba36a19	0.004987013
203	0x3d66b2b4	0.05632277
204	0x3d40c607	0.047063854
205	0x3dc7687a	0.09736724
206	0x3c10582c	0.008810084
207	0xbdcd4a23	-0.10023906
208	0xbd0412b8	-0.032244414
209	0xbc9e4005	-0.019317636
210	0x3d958792	0.073012486
211	0x3e107e05	0.14110573
212	0xbdc8d0f5	-0.098054804
213	0xbdd263bd	-0.1027293
214	0xbd369a97	-0.044581022
215	0xbd4c0451	-0.049808804
216	0x3d4df34e	0.05028086
217	0x3d9e4dab	0.07729658
218	0x3c98ed44	0.018667825
219	0xbc9c7cb4	-0.019102432
220	0xbdfc3666	-0.12315063
221	0xbce8da93	-0.028424537
222	0x3dd84b49	0.105612345
223	0x3c9ecf68	0.019386008
224	0x3d62366d	0.055227686
225	0x3c7731bc	0.015087541
226	0xbd502021	-0.05081189
227	0xbd7c32e7	-0.06157198
228	0xbcfb7fa4	-0.030700512
229	0x3d821d5c	0.06353256
230	0x3d8744d0	0.06604922
231	0x3dbfb4a0	0.09360623
232	0x3dbd97ac	0.09257445
233	0x3da93fa7	0.08264094
234	0xbca43015	-0.020042459
235	0x3cd96ac5	0.02654017
236	0xbd9083f0	-0.07056415
237	0xbce00371	-0.027345391
238	0x3d52c7eb	0.051460188
239	0xbe0c570c	-0.13705081
240	0x3db64abb	0.089009725
241	0xbd377b3c	-0.04479526
242	0xbd7d4b59	-0.061839435
243	0xbdae2f5c	-0.08505127
244	0xbd0745a7	-0.03302541
245	0x3d8b16a5	0.067914285
246	0xbc92772d	-0.017879093
247	0x3c7cee27	0.015437639
248	0x3df550a1	0.11978269
249	0x39db532c	0.00041832903
250	0x3d0b6fd7	0.034042206
251	0xbe0c874b	-0.13723485
252	0xbd264fd5	-0.040603478
253	0x3ce41369	0.027841287
254	0xbd1ab591	-0.03777081
255	0xbc282632	-0.010263013

encoder2.conv.0.bias f4 [64]
0	0x3d0772ee	0.03306859
1	0x3dbd1a1d	0.09233496
2	0x3da4cc6f	0.08046805
3	0xbdd0e406	-0.10199742
4	0x3d1fe37d	0.03903531
5	0x3dcbde59	0.09954519
6	0xbba92224	-0.0051615406
7	0x3c9c76df	0.01909965
8	0xbd6ff3a9	-0.05858198
9	0xbd9834ad	-0.07431922
10	0x3d47b288	0.048754245
11	0xbc5ad1b1	-0.013355658
12	0x3dd0297f	0.10164165
13	0x3b538e03	0.003228069
14	0x3d975ca2	0.07390715
15	0xbd08bf2f	-0.033385452
16	0xbdc1a71f	-0.09455704
17	0xbcf8ffdb	-0.030395439
18	0x3d4aa69c	0.049475297
19	0x3dc6e0a2	0.09710814
20	0xbc8a9cb7	-0.01692043
21	0x3c0c86c4	0.0085770525
22	0x3d72d09d	0.05928098
23	0xbd2d06fb	-0.042242985
24	0xbc825389	-0.015908973
25	0xbdc1f776	-0.094710276
26	0xbd8de730	-0.06928861
27	0xbc063b25	-0.008192812
28	0x3ce0037d	0.027345413
29	0xbc982213	-0.018570935
30	0xbda61cf1	-0.08110989
31	0xbb7a04c6	-0.0038149818
32	0x3b101a4e	0.0021988335
33	0x3ce635a1	0.028101744
34	0xbd792d1e	-0.060834043
35	0xbd9706a3	-0.07374313
36	0x3dd1c47a	0.10242553
37	0x3d39e59e	0.045384996
38	0xbc92be46	-0.017912995
39	0x3bc6bb21	0.006064788
40	0xbd0cabdb	-0.03434358
41	0x3d091453	0.03346665
42	0xbc5f07ed	-0.0136127295
43	0x3da921c9	0.08258397
44	0xbd7faebe	-0.062422507
45	0xbcfa40c3	-0.030548459
46	0x3d549e42	0.05190874
47	0x3b589699	0.0033048748
48	0xbd8b63a1	-0.06806112
49	0xbcf9e02a	-0.030502398
50	0xbdbe33f9	-0.09287257
51	0xbbc8e946	-0.006131324
52	0xbdc4d096	-0.09610097
53	0xbd26218f	-0.040559348
54	0x3cd913d9	0.026498722
55	0xbdb1e864	-0.08686903
56	0xbdc1c947	-0.09462219
57	0xbd7c91be	-0.061662428
58	0xbdd0cdd9	-0.10195512
59	0x3cc743e8	0.024324372
60	0x3d24a772	0.04019875
61	0xbc1d2509	-0.009591349
62	0xbd8e50b9	-0.069489904
63	0x3d8cf4f2	0.06882657

encoder2.conv.1.weight f4 [64]
0	0x3f8db64e	1.107126
1	0x3f80f1d0	1.0073795
2	0x3f7a7f96	0.9785093
3	0x3f861d2a	1.047765
4	0x3f5e13c3	0.86748904
5	0x3f6be730	0.9214964
6	0x3f634ebd	0.8879202
7	0x3f7b1569	0.98079544
8	0x3f6923f1	0.9107047
9	0x3f83996e	1.0281198
10	0x3f8776a8	1.0583086
11	0x3f8b1a14	1.0867333
12	0x3f61bad4	0.881757
13	0x3f86e718	1.0539274
14	0x3f9606be	1.1720808
15	0x3f740391	0.9531794
16	0x3f6deed7	0.92942566
17	0x3f8e5846	1.1120689
18	0x3f64273e	0.8912238
19	0x3f818e9e	1.0121648
20	0x3f80ae1f	1.0053138
21	0x3f6e4df8	0.9308772
22	0x3f7b08cf	0.98060316
23	0x3f84fe2b	1.0390066
24	0x3f91a7c9	1.1379329
25	0x3f82ebc4	1.02282
26	0x3f8189a6	1.0120132
27	0x3f7d337b	0.9890668
28	0x3f880474	1.0626359
29	0x3f709d77	0.9399027
30	0x3f85c35c	1.0450244
31	0x3f85df19	1.0458709
32	0x3f720b74	0.94548726
33	0x3f814c4e	1.0101411
34	0x3f86fdd7	1.0546216
35	0x3f8d9c6d	1.1063362
36	0x3f7de3c4	0.9917567
37	0x3f8b3f15	1.0878626
38	0x3f8c97ed	1.0983864
39	0x3f644a0e	0.891755
40	0x3f66ba0f	0.9012765
41	0x3f8053a4	1.0025525
42	0x3f6f95c9	0.9358793
43	0x3f8deeb9	1.1088477
44	0x3f64de58	0.8940177
45	0x3f82a3a8	1.0206194
46	0x3f6d811d	0.92775136
47	0x3f76f9d8	0.9647498
48	0x3f8a29f0	1.0794048
49	0x3f76a3ef	0.9634389
50	0x3f8847b5	1.0646883
51	0x3f7cce03	0.9875185
52	0x3f831223	1.023991
53	0x3f804252	1.0020239
54	0x3f71daff	0.94474787
55	0x3f7bd80b	0.9837653
56	0x3f9b0335	1.2110354
57	0x3f668966	0.90053403
58	0x3f6ac0ed	0.9170063
59	0x3f818a31	1.0120298
60	0x3f815331	1.0103513
61	0x3f658776	0.8965982
62	0x3f74696b	0.95473355
63	0x3f7cf99e	0.98818386

encoder2.conv.1.bias f4 [64]
0	0x3df7ac7f	0.12093448
1	0x3db2283f	0.086990826
2	0xbcfecc9b	-0.031103423
3	0x3d0e12d5	0.03468593
4	0xbe1278e5	-0.1430393
5	0xbdd14e13	-0.102199696
6	0xbe1143ba	-0.14185992
7	0x3d1ddf9c	0.03854333
8	0xbdb0f9ce	-0.086413965
9	0x3c782ab8	0.015146904
10	0x3b81d646	0.003962311
11	0x3e0ec6bc	0.13942999
12	0xbdaaca65	-0.08339385
13	0x3d605e96	0.054777704
14	0x3e113805	0.14181526
15	0xbc6f8d46	-0.014621085
16	0xbdac2fb0	-0.08407533
17	0xbd1e4c89	-0.03864721
18	0xbddeecc6	-0.10885005
19	0x3cf5cb7d	0.030004257
20	0x3d1f68fd	0.038918484
21	0xbd916c00	-0.071006775
22	0xbbb195bf	-0.0054194625
23	0x3dbaae27	0.09115248
24	0x3e175680	0.14779091
25	0x3d9accff	0.07558631
26	0x3c9b7f2c	0.018981539
27	0xbc76ca46	-0.015062874
28	0x3db5b0f6	0.08871643
29	0xbd86a01f	-0.065735094
30	0x3baf1e69	0.0053442013
31	0x3dae0752	0.0849749
32	0xbcef4e1e	-0.029212054
33	0xbb6fbc78	-0.0036580842
34	0x3d56e59d	0.05246507
35	0x3dc16228	0.0944255
36	0xbc91ee7d	-0.017813915
37	0x3d99efc4	0.07516435
38	0x3d931d06	0.0718327
39	0xbdc3d37a	-0.0956182
40	0xbe158be8	-0.14604151
41	0x3c8091a8	0.015694454
42	0xbd9e4767	-0.07728463
43	0x3dffb44f	0.12485563
44	0xbd5c0311	-0.05371386
45	0x3c5ff86f	0.013670071
46	0xbd638798	-0.055549234
47	0xbc7cf381	-0.015438915
48	0x3d4f5c90	0.050625384
49	0x3c742006	0.014900213
50	0x3ccc3d80	0.02493167
51	0xbd0281c9	-0.031862054
52	0x3d58061f	0.052740213
53	0x3d5063b6	0.05087634
54	0xbd10abce	-0.035320096
55	0xbdb7a4af	-0.08966958
56	0x3ea0fc82	0.31442648
57	0xbd45588a	-0.04818014
58	0xbca3f9d1	-0.020016583
59	0x3c8e4f02	0.017371658
60	0xbcff7661	-0.031184377
61	0xbd0c57c4	-0.034263387
62	0xbd17e823	-0.037086617
63	0x39bf1c76	0.00036451564

encoder2.conv.1.running_mean f4 [64]
0	0xbe4b32df	-0.19843625
1	0xbf01af8d	-0.50658494
2	0x3d9c7e3a	0.07641263
3	0xbe6cde4a	-0.23131672
4	0x3ee47d7a	0.4462698
5	0x3f522c15	0.82098514
6	0x3f6302b8	0.88676023
7	0xbf56423e	-0.8369483
8	0x3f5fdc91	0.8744593
9	0xbcc9834f	-0.024598746
10	0xbe6f8b21	-0.23392917
11	0xbe25a273	-0.1617525
12	0x3f8f8330	1.121191
13	0xbeab9c1a	-0.33517534
14	0xbeaf132b	-0.34194311
15	0xbec7748e	-0.38956112
16	0x3f6f988f	0.9359216
17	0xbeb5e545	-0.3552648
18	0x3f81f791	1.0153676
19	0xbf6b9eff	-0.92039484
20	0x3d864b53	0.06557336
21	0x3f76faeb	0.9647662
22	0x3ec2fb25	0.38082233
23	0xbef8de6a	-0.48607188
24	0xbec6db90	-0.38839388
25	0xbe810484	-0.25198758
26	0x3d2ba8df	0.041909095
27	0xbeaf1199	-0.34193113
28	0xbf14fede	-0.58201396
29	0xbe1f44f8	-0.15553653
30	0xbec358b5	-0.38153616
31	0x3eb249c0	0.34821892
32	0x3e350c48	0.17680466
33	0xbf3b7438	-0.7322421
34	0xbf087edd	-0.5331858
35	0xbea129ab	-0.31477103
36	0xbe800038	-0.25000167
37	0x3d426efc	0.047469124
38	0x3dda9f7e	0.10674952
39	0x3f637e2a	0.88864386
40	0x3e4cc484	0.1999684
41	0x3dda454c	0.106577486
42	0x3ee38591	0.4443784
43	0xbebb3875	-0.3656651
44	0xbec9a7f6	-0.39385957
45	0xbe7a1f42	-0.24425986
46	0xbeb0916d	-0.3448595
47	0x3f44e33e	0.76909244
48	0xbf2a2a12	-0.66470444
49	0xbf71f8eb	-0.94520444
50	0x3f0e38b4	0.5555527
51	0xbe755fa5	-0.23962267
52	0xbedffb15	-0.43746248
53	0xbecbab8a	-0.3977931
54	0xbcedc0c8	-0.02902259
55	0xbf2c908c	-0.6740806
56	0xbedf3820	-0.43597507
57	0x3c2f9bb5	0.010718276
58	0x3e24602b	0.1605231
59	0xbde7af91	-0.113127835
60	0xbd786cc6	-0.06065061
61	0x3f58cbc8	0.84685946
62	0xbc4a932a	-0.012364188
63	0x3e700b63	0.23441844

encoder2.conv.1.running_var f4 [64]
0	0x3e22577d	0.15853687
1	0x3e5d6f57	0.21624504
2	0x3e6e98dc	0.23300499
3	0x3e25234d	0.16126747
4	0x3e6ed866	0.23324737
5	0x3e8e29cf	0.27766272
6	0x3f1958b9	0.59901005
7	0x3f1b15fe	0.6058043
8	0x3f0b3adf	0.54386705
9	0x3e430e08	0.19048321
10	0x3dadbdd8	0.084834754
11	0x3ea5b894	0.32367384
12	0x3ea52ef6	0.3226239
13	0x3e9bdc78	0.30441642
14	0x3e2b937f	0.16755484
15	0x3e1c83a9	0.152846
16	0x3e9c0ad0	0.30477
17	0x3e2eb0e1	0.17059661
18	0x3f05a9cd	0.5221222
19	0x3ea8200d	0.32836953
20	0x3ed62900	0.41828156
21	0x3e9b9e9c	0.30394447
22	0x3e407ed9	0.18798389
23	0x3e17a588	0.14809239
24	0x3d9aa7dd	0.07551549
25	0x3eba0fb1	0.36340097
26	0x3e720ae7	0.23636971
27	0x3e21f2d7	0.15815292
28	0x3e3d86d8	0.1850847
29	0x3eaed761	0.34148696
30	0x3e3c9197	0.18414913
31	0x3de64f52	0.11245598
32	0x3eb8f67a	0.36125547
33	0x3e98002e	0.29687637
34	0x3db65d07	0.08904462
35	0x3d94996e	0.07255827
36	0x3f33d538	0.7024722
37	0x3e794af2	0.24344996
38	0x3e4863b0	0.19569278
39	0x3f217eea	0.6308428
40	0x3e013340	0.12617207
41	0x3d55d8e7	0.052208807
42	0x3e87a35b	0.26491818
43	0x3db144c3	0.086556934
44	0x3e48f8d7	0.19626175
45	0x3e07f7fb	0.13278191
46	0x3ed1fb89	0.4101222
47	0x3e193a29	0.14963593
48	0x3e34c186	0.17651948
49	0x3f12ad3f	0.572956
50	0x3e2338d6	0.1593965
51	0x3eee5629	0.4655011
52	0x3f1630a6	0.5866798
53	0x3dd9d108	0.10635573
54	0x3e81f6b6	0.25383538
55	0x3e877cd9	0.2646244
56	0x3dc5c6f0	0.09657085
57	0x3e097405	0.13423164
58	0x3eb1b3fd	0.34707633
59	0x3f680c9a	0.9064423
60	0x3de64bd4	0.11244932
61	0x3e6d35f5	0.23165114
62	0x3e641454	0.2227338
63	0x3e84c989	0.2593501

encoder2.conv.3.weight f4 [64, 64, 3]
0	0xbd034ff4	-0.03205867
1	0x3cb1201c	0.021621756
2	0xbd9a7340	-0.075415134
3	0xbd6735a5	-0.056447644
4	0x3d4eebb2	0.050517745
5	0x3cb722b2	0.022355411
6	0x3d1f6a6e	0.03891986
7	0xbd91375f	-0.07090639
8	0xbc72bc35	-0.01481538
9	0xbd47bdab	-0.048764866
10	0xbb8eca35	-0.004357601
11	0x3b774eab	0.0037736099
12	0xbd853b55	-0.06505457
13	0x3c4e146b	0.01257811
14	0xbcc5a4e5	-0.02412648
15	0xbd3f7b3f	-0.046748396
16	0xbd247010	-0.040145934
17	0x3d2f03cf	0.04272824
18	0xbda6f7b7	-0.081527166
19	0x3d551960	0.052026153
20	0xbd9877f4	-0.07444754
21	0x3d972621	0.073803194
22	0x3d016554	0.031590775
23	0x3da767cc	0.081740946
24	0xbd478a22	-0.048715718
25	0xbd370bd8	-0.04468903
26	0x3dcadba2	0.09905173
27	0x3d0509dd	0.03248011
28	0xbcce4585	-0.025179634
29	0x3d9ba9ce	0.07600747
30	0xbd836bbb	-0.06417032
31	0x3d228a82	0.039682873
32	0xbd70fa67	-0.058832552
33	0x3d446881	0.047951225
34	0xbd19840f	-0.037479457
35	0xbd2e82d4	-0.042605236
36	0x3d6b2a26	0.057413243
37	0xbd749125	-0.059708733
38	0x3d3f30a6	0.046677254
39	0xbde279f0	-0.11058414
40	0x3cdd1f83	0.026992565
41	0xbd1c984e	-0.038231187
42	0xbd3e4213	-0.046449732
43	0x3cf0ecf3	0.029409861
44	0xbe041306	-0.12897882
45	0x3b6b7ce6	0.00359326
46	0xbcb23f05	-0.021758566
47	0x3b884af1	0.0041593243
48	0x3cfb3d20	0.030668795
49	0x3d351450	0.044208825
50	0x3d2dc270	0.04242176
51	0x3d1913bf	0.037372347
52	0x3d87a9c8	0.0662418
53	0x3cf0b9e5	0.029385516
54	0xbd456932	-0.048196025
55	0xbce9ea71	-0.028554173
56	0x3d21e64b	0.039526265
57	0x3d4de5ed	0.050268102
58	0xbd8e3d20	-0.069452524
59	0xbd5c9635	-0.053854186
60	0x3d437110	0.047715247
61	0x3d5e3c7a	0.054256894
62	0xbb1d5de5	-0.0024012264
63	0xbca1cbfb	-0.019750586
64	0xbddb5b5a	-0.10710783
65	0xbd899592	-0.067179814
66	0xbd8d9062	-0.069123045
67	0x3d0fb5df	0.035085555
68	0xbd4cbb18	-0.049983114
69	0xbd2d4df0	-0.042310655
70	0xbcdac84f	-0.026706843
71	0xbd0c8d18	-0.034314245
72	0x3d0ee802	0.03488923
73	0xbc606d7e	-0.01369798
74	0xbc7af2a0	-0.015316635
75	0xbc949d98	-0.018141553
76	0x3af2896e	0.0018504092
77	0x3d3f3554	0.046681717
78	0xbd202088	-0.039093524
79	0x3d6dc974	0.05805345
80	0xbd1f89bd	-0.038949717
81	0x3d89c1ba	0.067264035
82	0x3cb7b2bc	0.022424094
83	0x3d3adbe0	0.045619845
84	0xbd607ff3	-0.054809522
85	0x3db07cf3	0.08617582
86	0x3c8d6627	0.017260624
87	0xbd39b3bd	-0.045337427
88	0xbd21e6cc	-0.039526746
89	0xbd43e8e6	-0.04782953
90	0x3d053139	0.032517646
91	0x3da22819	0.07917804
92	0x3d523e4c	0.051328942
93	0xbdafa233	-0.08575859
94	0x3ca7cbd4	0.020482935
95	0x3d27f51a	0.04100523
96	0xbcd78ae4	-0.026311345
97	0xbd5262aa	-0.051363625
98	0x3d07a4ec	0.033116266
99	0x3d8b4d56	0.0680186
100	0x3c3f5193	0.011677164
101	0x3d0f1998	0.034936517
102	0x3d50fe40	0.05102372
103	0xbe25d4ba	-0.1619443
104	0x3d3cdd67	0.046109583
105	0xbdc7b59b	-0.09751435
106	0xbb2a6880	-0.0026002228
107	0x3c73616c	0.01485477
108	0x3d96ba29	0.07359726
109	0xbb54dd5a	-0.0032480569
110	0x3db2777d	0.08714197
111	0x3d1fbdae	0.038999252
112	0xbd88c851	-0.06678832
113	0xbd54efc5	-0.051986475
114	0xbdda99ac	-0.10673842
115	0xbd81a73f	-0.06330728
116	0xbc4526a0	-0.012033135
117	0x3d99bd75	0.07506839
118	0x3c83d0f2	0.016090844
119	0x3d887d06	0.06664471
120	0xbd0fd16f	-0.03511184
121	0xbd5f79af	-0.054559406
122	0xbd8a4bff	-0.06752776
123	0xbcd54028	-0.026031569
124	0xbdcefa03	-0.1010628
125	0x3cf46e7e	0.029837843
126	0xbd3077fc	-0.043083176
127	0xbde4640b	-0.11151894
128	0xbc7f85a8	-0.015595831
129	0x3da674c1	0.08127738
130	0xbc2b44b8	-0.010453396
131	0x3d9ead7b	0.077479325
132	0xbcfdcc58	-0.030981228
133	0x3d82aaf7	0.06380265
134	0xbbe85283	-0.0070899143
135	0xbcc319ee	-0.023816075
136	0xbccef374	-0.025262572
137	0x3dda48ac	0.10658392
138	0xbd9572cf	-0.072972886
139	0xbd363cd6	-0.04449161
140	0x3ceee97d	0.02916407
141	0xbdd8bc02	-0.10582735
142	0xbdcf1569	-0.101115055
143	0xbcc14946	-0.02359451
144	0xbd06f69b	-0.032950025
145	0x3d92a0e3	0.07159593
146	0x3d1c3f3e	0.03814625
147	0x3d9f21ce	0.077701196
148	0x3d87458b	0.06605061
149	0x3ca20546	0.019777905
150	0x3c91dda0	0.017805874
151	0xbcb71527	-0.022348953
152	0xbd05dd28	-0.032681614
153	0xbc92859d	-0.017885977
154	0x3b1077f6	0.0022044159
155	0x3d5c757d	0.053822983
156	0xbca33180	-0.019921064
157	0x3d6a392f	0.05718344
158	0xbd0e0666	-0.03467407
159	0x3d88c899	0.06678886
160	0x3d2be46f	0.041965898
161	0xbd952b8f	-0.07283699
162	0xbd8ac20b	-0.06775292
163	0x3d9902a7	0.07471209
164	0x3c3ac9df	0.011400669
165	0x3d06ebcb	0.032939713
166	0x3d021ca1	0.031765584
167	0xbd2c616e	-0.042085104
168	0x3c8f62fb	0.017503252
169	0x3d101074	0.03517194
170	0xbd870e9d	-0.06594584
171	0xbd1f995d	-0.038964618
172	0xbd99c89e	-0.07508968
173	0xbcafc36f	-0.021455495
174	0x3d348bfd	0.044078816
175	0xbc60e42b	-0.0137262745
176	0x3d454fb3	0.04817171
177	0x3d5824fa	0.05276964
178	0x3d6054cb	0.054768365
179	0x3d550979	0.052010987
180	0x3d7e02bd	0.06201433
181	0xbc59f536	-0.013303092
182	0xbd91bcdd	-0.07116101
183	0xbd852f4a	-0.0650316
184	0x3d4df817	0.050285425
185	0x3d805f87	0.062682204
186	0xbd652c15	-0.055950243
187	0x3b9f640c	0.0048642214
188	0xba62fc14	-0.00086587784
189	0x3ca48268	0.020081714
190	0xbc3d91ff	-0.011570453
191	0xbd879b3f	-0.06621408
192	0x3dd6ad13	0.1048223
193	0xbcf37214	-0.029717483
194	0x3dd6da7f	0.104908936
195	0x3c2b10df	0.010441034
196	0xbd1403ed	-0.036136556
197	0x3cb0d544	0.021586068
198	0xbd6e4e30	-0.058180034
199	0xbbcc3cc9	-0.006232832
200	0xbd2e288d	-0.04251914
201	0xbd1b1075	-0.03785749
202	0x3c4fdd7c	0.012687083
203	0xbd43fbde	-0.04784762
204	0xbd521c0a	-0.05129627
205	0xbc213c4f	-0.009841039
206	0xbd821784	-0.063521415
207	0x3ce4fb29	0.027951794
208	0xbc8192c6	-0.015817057
209	0xbd0d9f98	-0.03457603
210	0xbde79dff	-0.11309432
211	0xbd5cd2b3	-0.053911876
212	0x3d054cf2	0.032544084
213	0x3d12adb6	0.035810195
214	0xbd2728bf	-0.040810343
215	0xbd8298a0	-0.06376767
216	0x3ae6cd52	0.0017608798
217	0x3cb25e5c	0.02177351
218	0x39601ac3	0.00021372274
219	0xbd2e132d	-0.042498756
220	0xbd018f35	-0.031630713
221	0x3e0d2c34	0.13786393
222	0x3b52f264	0.0032187933
223	0xbca98e19	-0.02069764
224	0xbd84a842	-0.06477405
225	0x3d366ec7	0.04453924
226	0xbc2ce229	-0.010551968
227	0xbd45bbf3	-0.048274945
228	0x3ba443c6	0.005012962
229	0x3c0fcc45	0.008776729
230	0xbc4c73e1	-0.0124788
231	0xbd980ec6	-0.07424693
232	0x3c84d840	0.016216397
233	0x3dd9a173	0.10626497
234	0xbd0870cb	-0.033310693
235	0x3d93d3dd	0.07218144
236	0x3c31bb55	0.010847886
237	0x3bf107a2	0.007355646
238	0xbd53f4d2	-0.05174715
239	0xbd870b30	-0.06593931
240	0x3db19138	0.086702764
241	0x3d2f52d9	0.04280362
242	0xbd1e1a2a	-0.03859917
243	0x3e0551a8	0.1301943
244	0xbb74f4c9	-0.0037377349
245	0xbdde0e10	-0.10842526
246	0xbd7d4966	-0.061837576
247	0xbdbca809	-0.09211738
248	0xbc9a277f	-0.018817661
249	0xbb73bab4	-0.003719014
250	0x3d5d6eba	0.054060675
251	0xbda87762	-0.082258955
252	0x3e121ff9	0.14270009
253	0x3dbd472b	0.0924209
254	0x3d9df3ba	0.07712503
255	0x3d48ed05	0.049054164

encoder2.conv.3.bias f4 [64]
0	0xbcd35e77	-0.02580188
1	0xbd59e824	-0.053199902
2	0xbd117143	-0.035508405
3	0x3d5cfef8	0.053954095
4	0x3c7e5c7b	0.015524979
5	0xbb62a925	-0.0034585681
6	0xbaa045c6	-0.0012227825
7	0x3d50f0e1	0.05101097
8	0x3d807e18	0.062740505
9	0x3d92cb6c	0.07167706
10	0xbd247709	-0.040152583
11	0xbc82a629	-0.015948372
12	0xbc0e085e	-0.008668987
13	0x3bf2c4a1	0.007408694
14	0x3cc6ba6a	0.024258811
15	0x3c824478	0.01590179
16	0x3cd9b040	0.0265733
17	0x3d82ce3b	0.063869916
18	0x3d208e92	0.039198466
19	0xbd368a59	-0.044565532
20	0xbc669849	-0.014074394
21	0x3d8497f8	0.06474298
22	0x3d756e2b	0.059919517
23	0x3d921ec4	0.07134774
24	0xbd3a1a5c	-0.045435295
25	0x3d872999	0.06599731
26	0xbd634a2e	-0.055490665
27	0x3cb49b7a	0.022046793
28	0x3b04e02f	0.0020275225
29	0x3d71e66f	0.05905765
30	0x3d320e4a	0.04347066
31	0xbd471219	-0.048601244
32	0x3cc26c06	0.02373315
33	0x3b314ea6	0.0027054935
34	0x3d5a8c99	0.05335674
35	0x3ca5620e	0.020188358
36	0x3d205be9	0.039150152
37	0xbd71ab3e	-0.0590012
38	0xbc537dca	-0.012908408
39	0x3d8765a6	0.06611185
40	0x3cf45d51	0.029829653
41	0xbd319c69	-0.043362055
42	0xbd792823	-0.060829293
43	0x3c1da8a3	0.009622726
44	0x3d1b7469	0.037952814
45	0x3bb3c666	0.0054862974
46	0xbd21d31a	-0.039507963
47	0x3d816150	0.06317389
48	0x3bd2f5b3	0.006437981
49	0xbc05d348	-0.008168049
50	0x3d79ba4b	0.06096868
51	0x3d90b03d	0.07064865
52	0xbcbb9f4a	-0.022903103
53	0xbb4d51f7	-0.0031329372
54	0xbd79077d	-0.060798157
55	0x3c39dbc7	0.011343903
56	0x3cf7c746	0.030246388
57	0x3d88d9cb	0.06682166
58	0x3c8b2738	0.016986474
59	0x3d3efaae	0.046625786
60	0xbc22a893	-0.009927887
61	0x3d53aa12	0.051675864
62	0xbce47959	-0.027889894
63	0xbd659dee	-0.056058817

encoder2.conv.4.weight f4 [64]
0	0x3f81a8b4	1.0129609
1	0x3f7d611c	0.989763
2	0x3f683e1e	0.90719783
3	0x3f886934	1.0657105
4	0x3f8245b3	1.017752
5	0x3f767d99	0.96285397
6	0x3f7c36a0	0.9852085
7	0x3f681cdf	0.90669054
8	0x3f7a6d56	0.97823083
9	0x3f74bc9c	0.95600295
10	0x3f8323ce	1.0245302
11	0x3f826dec	1.0189795
12	0x3f6920dc	0.91065764
13	0x3f809156	1.0044353
14	0x3f7cc5a7	0.98739094
15	0x3f806f36	1.0033939
16	0x3f80d65c	1.0065417
17	0x3f7a11ba	0.976833
18	0x3f7f21b3	0.99660796
19	0x3f86fc9f	1.0545844
20	0x3f77a1f1	0.9673148
21	0x3f7a57e9	0.9779039
22	0x3f730e9b	0.9494416
23	0x3f72b04e	0.9480027
24	0x3f6e34f0	0.93049526
25	0x3f75d534	0.9602845
26	0x3f64feb9	0.89451176
27	0x3f82c41f	1.0216101
28	0x3f836526	1.0265243
29	0x3f7dabef	0.99090475
30	0x3f8628a1	1.0481149
31	0x3f826384	1.018662
32	0x3f7bc940	0.9835396
33	0x3f7d0b40	0.9884529
34	0x3f806006	1.0029304
35	0x3f81ccd4	1.0140634
36	0x3f7fe777	0.9996256
37	0x3f79d9e1	0.9759808
38	0x3f823010	1.0170918
39	0x3f8168b9	1.0110084
40	0x3f84d0c0	1.0376205
41	0x3f8bccc1	1.0921861
42	0x3f6e347e	0.93048847
43	0x3f82b677	1.0211934
44	0x3f75dc80	0.9603958
45	0x3f77f31a	0.9685532
46	0x3f66a830	0.90100384
47	0x3f82edb0	1.0228786
48	0x3f7dcdfb	0.99142426
49	0x3f8701af	1.0547389
50	0x3f7b6d9b	0.9821412
51	0x3f77bfb1	0.9677687
52	0x3f7c7292	0.9861232
53	0x3f69590b	0.91151494
54	0x3f72be8c	0.94822
55	0x3f7e8a82	0.99430096
56	0x3f80c05f	1.0058707
57	0x3f636db1	0.8883925
58	0x3f86767e	1.0504911
59	0x3f7ee9de	0.99575603
60	0x3f8681a6	1.0508316
61	0x3f7e1ab7	0.99259514
62	0x3f7a14f1	0.97688204
63	0x3f7116e5	0.9417556

encoder2.conv.4.bias f4 [64]
0	0xbd0db3c7	-0.034595277
1	0x3caf8c1b	0.021429112
2	0xbd1401a2	-0.03613437
3	0x3d218d0d	0.039441157
4	0xbc9e8fb4	-0.019355632
5	0xbdc9e668	-0.098584
6	0xbd070b65	-0.03296985
7	0x3acb7e5c	0.0015525329
8	0xbac8b39a	-0.0015312314
9	0xbd6128e0	-0.054970622
10	0xba57eeac	-0.0008237164
11	0xba901304	-0.0010991995
12	0xbd98a9ce	-0.07454263
13	0xbb936408	-0.0044980086
14	0xbd784cd4	-0.060620144
15	0xbd420d4f	-0.047375973
16	0xbd000d50	-0.031262696
17	0x3d1244ea	0.035710253
18	0xbb144185	-0.002262206
19	0x3c5c8c4f	0.013461187
20	0xbd1875bd	-0.03722166
21	0xbcc9a245	-0.024613509
22	0xbd204ca6	-0.039135598
23	0xbb6fe4e6	-0.003660494
24	0xbd9ff9b1	-0.07811297
25	0xbd87a3e3	-0.06623056
26	0xbd8286b2	-0.06373347
27	0x3d00ef0a	0.031477965
28	0xb71bb218	-9.280186e-06
29	0xbb51c705	-0.0032009494
30	0x3ce161ba	0.02751242
31	0x3ce8a857	0.028400583
32	0xbd51c586	-0.051213764
33	0x3cf5bcec	0.029997312
34	0xbb787095	-0.00379089
35	0x3d42904b	0.04750089
36	0xbc8fae98	-0.017539307
37	0x3d1a0e58	0.037611336
38	0x3cfb7735	0.03069649
39	0xbc1a1a29	-0.009405651
40	0x3c3afaa0	0.011412293
41	0x3ca92b40	0.020650506
42	0xbd193ae8	-0.037409693
43	0x3b91ecbb	0.0044532693
44	0xbdf438be	-0.11924885
45	0xbd03cfe8	-0.032180697
46	0x3cff5f5d	0.031173402
47	0x3d386775	0.04502054
48	0x3cb0edf6	0.021597844
49	0x3d51377d	0.05107831
50	0x3c6aab42	0.014323058
51	0xbb984429	-0.004646797
52	0xbcb75d26	-0.022383284
53	0x3bb8e866	0.0056429384
54	0xbd4a3f4b	-0.049376767
55	0xbc9040d1	-0.017609032
56	0x3bea7a14	0.007155666
57	0xbcdd7746	-0.027034413
58	0xbb6dd320	-0.003628917
59	0xbc869ec8	-0.016433135
60	0x3b8ae85e	0.004239126
61	0xbd562510	-0.05228144
62	0xbc1f61c7	-0.009727902
63	0xbd0a3602	-0.033742912

encoder2.conv.4.running_mean f4 [64]
0	0xbe17ffd7	-0.14843689
1	0xbd05875a	-0.032599784
2	0x3e5e9aa7	0.21738683
3	0xbd1a7a70	-0.03771442
4	0xbdca47ba	-0.09876962
5	0x3f1bb0ca	0.60816634
6	0xbde9572c	-0.1139358
7	0x3e6e1d34	0.23253328
8	0xbd70a91e	-0.058755033
9	0x3e49ce45	0.19707592
10	0xbecc9346	-0.3995611
11	0xbdc1fed4	-0.09472433
12	0x3e33a8b1	0.1754482
13	0xbe7133bc	-0.23554891
14	0xbdec8f72	-0.115507975
15	0x3e3dd200	0.1853714
16	0xbed58584	-0.41703427
17	0xbe2afdf2	-0.16698435
18	0xbd6b9e33	-0.057523917
19	0xbe49a58b	-0.19692056
20	0x3e9902c6	0.29884928
21	0xbeaaf9c4	-0.3339368
22	0xbe9a5679	-0.30144098
23	0xbe524ae2	-0.20536378
24	0x3e54d679	0.2078494
25	0x3f652a66	0.8951782
26	0x3f12947f	0.5725784
27	0xbdee1a4a	-0.11626108
28	0x3e4690b9	0.19391145
29	0x3cfd7ac3	0.030942326
30	0xbe35153e	-0.17683885
31	0xbed5a809	-0.41729763
32	0xbe00af96	-0.1256698
33	0xbf03bd3c	-0.51460624
34	0xbd442fe1	-0.047897223
35	0xbda0e755	-0.07856623
36	0xbe94c333	-0.29055175
37	0xbf20d5f0	-0.6282644
38	0xbd69d2bc	-0.057085738
39	0xbd8bab9e	-0.06819843
40	0xbf210c53	-0.6290943
41	0xbe822c9f	-0.25424668
42	0xbeab2906	-0.33429736
43	0xbe1316d5	-0.14364178
44	0x3ee2eaa4	0.44319642
45	0xbe4ccb94	-0.19999534
46	0x3ee26fe3	0.44225988
47	0xbcddeed5	-0.027091423
48	0xbe3bd73e	-0.18343827
49	0xbe2cf46b	-0.16890113
50	0xbe1e021c	-0.15430492
51	0xbf2ea7ba	-0.6822468
52	0xbe183cf0	-0.14866996
53	0x3ecad219	0.39613417
54	0x3eb9956d	0.36246815
55	0xbc7a3ac9	-0.015272805
56	0xbed095c2	-0.40739256
57	0x3f17b7ff	0.5926513
58	0xbe63e024	-0.22253472
59	0xbe8f4f51	-0.279902
60	0xbeeaf249	-0.45887974
61	0xbf0821a8	-0.53176355
62	0xbee7d880	-0.45282364
63	0xbe845ae1	-0.25850585

encoder2.conv.4.running_var f4 [64]
0	0x3f0b91b2	0.5451919
1	0x3f560921	0.8360768
2	0x3f81faeb	1.0154699
3	0x3efe0d51	0.49619535
4	0x3f149c22	0.5805074
5	0x3ea51ca8	0.32248425
6	0x3f8f08d0	1.1174564
7	0x3f468fbb	0.77563065
8	0x3f31fba0	0.69524574
9	0x3e9624d0	0.2932496
10	0x3fab64b8	1.3390112
11	0x3f2c1d98	0.67232656
12	0x3f13bb8e	0.5770806
13	0x3ef36294	0.47536147
14	0x3ec6b7ca	0.38812095
15	0x3f3b4f98	0.73168325
16	0x3f52d24d	0.82352144
17	0x3f626017	0.8842787
18	0x3eb99139	0.3624361
19	0x3ef10cfa	0.47080213
20	0x3ecda5ad	0.40165463
21	0x3f22d8bf	0.6361198
22	0x3f2e30c4	0.6804316
23	0x3ee9588b	0.45575365
24	0x3edc7c71	0.4306369
25	0x3f73ee1a	0.9528519
26	0x3f6a38d0	0.9149294
27	0x3f05b5df	0.5223064
28	0x3e8c28ba	0.27374822
29	0x3eb8d978	0.36103415
30	0x3ed4f250	0.4159112
31	0x3f0d2fa4	0.5515082
32	0x3f031305	0.51200897
33	0x3fc57be5	1.5428435
34	0x3f0e75a6	0.5564827
35	0x3e99c7d8	0.3003528
36	0x3f9259a5	1.1433607
37	0x3fe194f9	1.7623588
38	0x3f093a63	0.53604716
39	0x3f32f103	0.69899005
40	0x3fb794d3	1.4342293
41	0x3ec19aa5	0.37813297
42	0x3f0d5be6	0.5521835
43	0x3efd89ea	0.49519283
44	0x3ee4c4fe	0.44681543
45	0x3ece7c8b	0.40329394
46	0x3ee37724	0.44426835
47	0x3efa2965	0.48859707
48	0x3e85362b	0.2601789
49	0x3f201cec	0.6254413
50	0x3f7b84c4	0.9824946
51	0x3f8677bd	1.0505291
52	0x3f1378db	0.57606286
53	0x3fcabc4d	1.5838715
54	0x3ec64258	0.3872249
55	0x3effd70b	0.49968752
56	0x3f6dfc88	0.9296346
57	0x3eacc17b	0.33741364
58	0x3ec0f3d3	0.37686023
59	0x3f20f098	0.62867117
60	0x3f29754f	0.66194624
61	0x3ebe83a7	0.37209818
62	0x3eecf49f	0.4628038
63	0x3ee1e813	0.4412237
