best_unet_model.pt (torch, 773953 bytes, 75 tensors)

encoder1.conv.0.weight f4 [32, 1, 3]
000000 24 c4 86 3c 5b 5a a0 3d bb 2f df be fa 83 54 3d
       0.016450949 0.07829734 -0.43591103 0.051883675
000010 a0 b5 a8 be e8 b5 74 be b1 f8 cb bd 1b 45 52 3d
       -0.3295107 -0.23897517 -0.099595435 0.051335435
000020 3d 12 d9 3e fb 28 f9 3c 60 57 a1 be da 84 b9 3e
       0.42396727 0.030415049 -0.31511974 0.3623417
000030 9b e7 b1 be 94 36 89 be e5 79 0c bf c2 72 e8 3e
       -0.34747013 -0.26799452 -0.54873496 0.45400053
000040 2f 61 4b 3b 76 92 5f 3e 49 65 80 3e 92 1e bf bd
       0.0031033268 0.21833214 0.25077274 -0.09332003
000050 17 85 72 be 2f 4f 85 be c6 9c fb 3e d6 a9 80 be
       -0.23683582 -0.26036975 0.49143046 -0.25129575
000060 cc 35 e5 3e 13 0a 58 3d 8f 16 cb be da 37 d2 bd
       0.44767606 0.052743983 -0.39665648 -0.10264559
000070 da 62 05 3f 4f 1b cf be c3 da 93 3e 43 83 12 bf
       0.5210396 -0.40450522 0.2887784 -0.5723154
000080 d8 bb 94 3e 25 a4 d1 be 34 f5 08 bf be 2a 67 3e
       0.29049563 -0.40945545 -0.5349915 0.22574899
000090 77 e6 0c 3e 35 3d 95 3d e2 bd ef be 76 30 87 3e
       0.1375979 0.07287065 -0.46824557 0.2640416
0000a0 2c 42 f8 3e ee cc 0d bf 55 a0 94 be fc 86 3b be
       0.48487985 -0.5539082 -0.29028574 -0.18313211
0000b0 90 88 0a 3f 94 75 bd 3e 50 f3 9d 3d ae 0c c0 3e
       0.5411463 0.37003767 0.07712424 0.37509674
0000c0 a6 13 b7 3e b4 ed 49 be 43 49 22 be fb e7 83 be
       0.35757178 -0.19719583 -0.1584826 -0.25762925
0000d0 57 5a 89 3e 10 1f 91 be 76 82 4b be f4 33 c8 3e
       0.26826736 -0.2834401 -0.19873986 0.39102137
0000e0 c1 13 47 be df ce b2 be 7e b8 49 3e 8b b1 1f 3e
       -0.1944113 -0.34923455 0.19699284 0.15595071
0000f0 e8 4e b6 3e 95 0b d0 3e 91 63 a0 3d 90 f3 04 3f
       0.35607076 0.40633836 0.07831491 0.51934147
000100 58 53 43 3e ec 96 0e 3f 53 96 ff be 1e 77 df 3e
       0.19074762 0.5569904 -0.49919376 0.43645567
000110 28 e1 9f 3d c1 f4 2a be 86 c9 75 be 1f 7d e8 be
       0.07806617 -0.16694929 -0.24002656 -0.4540796
000120 31 f8 dc be 03 4e 94 3e c0 b8 08 3f ab f7 fd be
       -0.43158105 0.28965768 0.53406906 -0.49603018
000130 ec 3c 0e bd b7 ef 07 3f 68 4e 73 be c3 b0 30 be
       -0.03472607 0.5310015 -0.23760378 -0.17254929
000140 e6 df 9a 3e 38 de 8c 3e 5f 5e 42 3e a7 b0 9c 3e
       0.30248946 0.2751329 0.18981312 0.30603525
000150 00 d8 a8 3e 3a 90 b2 3e d3 7c ef 3e 82 ea 04 3f
       0.32977295 0.3487566 0.4677492 0.5192033
000160 97 7d 4e 3d 7c cf 55 be d8 21 fb 3d 29 c0 cf 3e
       0.05041274 -0.2087993 0.122623146 0.40576294
000170 a6 b4 84 be 78 a3 47 bd b8 a4 bf be 03 71 83 3c
       -0.25919074 -0.04873988 -0.37430358 0.0160451

encoder1.conv.0.bias f4 [32]
000000 5d 18 bc 3d da 3c e0 3e e5 15 ee 3e e2 41 cf be
       0.091843344 0.43796426 0.4650108 -0.40479952
000010 3f 67 28 3e 4e c2 89 be 6e c8 04 bf f6 f0 a7 bc
       0.16445635 -0.26906055 -0.5186833 -0.020500641
000020 8b 51 03 3e a7 a4 83 3e 35 79 1c 3e 91 e5 84 be
       0.12824075 0.25711557 0.15280612 -0.25956395
000030 37 c5 0c be dd 74 9f 3e 68 98 8f be 14 d5 25 bd
       -0.13747106 0.31143847 -0.28045964 -0.04048641
000040 03 be 8e be b6 98 0d bf 4e c4 62 3e b4 ca 59 3e
       -0.27879342 -0.55311143 0.22145197 0.21268731
000050 32 c5 dd be e9 9b 1f be c1 5e da 3e 52 43 50 3e
       -0.4331451 -0.15586819 0.42650416 0.2033818
000060 d1 2b 93 3e df 74 f7 bd bb b3 16 3e d6 ae f2 3e
       0.28744367 -0.12082838 0.14716999 0.47399014
000070 06 ea 29 3e 34 70 62 be 0f b9 0f bd 57 a0 0d 3f
       0.16593179 -0.22113115 -0.035088595 0.55322784

encoder1.conv.1.weight f4 [32]
000000 7f f4 6c 3f 31 81 6f 3f 7d 85 6a 3f 82 6b 7a 3f
       0.9256057 0.93556505 0.91609937 0.97820294
000010 8b 61 71 3f 60 4d 69 3f 8e 8e 78 3f 71 87 7c 3f
       0.94289464 0.9113369 0.9709252 0.9864417
000020 dd 4d 78 3f 8d 1b 83 3f 0e be a5 3f 24 f0 6d 3f
       0.9699381 1.0242783 1.2948625 0.9294455
000030 26 4b 6a 3f 76 ca 7e 3f ff e4 82 3f 96 cd 76 3f
       0.9152092 0.9952768 1.0226134 0.9640745
000040 b4 cd 91 3f 7b 1c 73 3f 32 0b 83 3f f3 5a 87 3f
       1.1390901 0.9496533 1.0237792 1.057463
000050 e2 77 74 3f 92 e2 6d 3f 0f 1d 7d 3f 3e b6 78 3f
       0.95495427 0.92923844 0.98872465 0.9715308
000060 0f ac 6a 3f 98 43 82 3f 36 6b 7a 3f 86 25 71 3f
       0.9166879 1.0176878 0.9781984 0.9419788
000070 35 2e 6f 3f 68 66 60 3f 63 f6 6f 3f a4 57 70 3f
       0.9342988 0.8765626 0.9373533 0.9388373

encoder1.conv.1.bias f4 [32]
000000 f6 5b 1f bd 44 25 1b bd a5 d5 ac bd f4 36 ed bc
       -0.03890606 -0.037877336 -0.08439187 -0.028956868
000010 11 75 13 3c fc 00 16 bd a2 80 86 3c 47 0a 36 3d
       0.009000079 -0.036622033 0.016418759 0.044443395
000020 f8 31 f1 3c 14 1e 6e 3d eb 53 04 3f a9 52 48 3d
       0.029442772 0.058134153 0.5169055 0.048906956
000030 ed 66 91 3c 74 de ae 3c 12 e9 96 3d f4 f1 b7 3b
       0.017749274 0.021346308 0.073686734 0.00561356
000040 4a 22 7e 3d 15 77 63 bd 07 fc 8e 3d 7b f5 84 3d
       0.06204442 -0.055533487 0.06981664 0.06492134
000050 dc 69 85 bd c2 f0 73 bc e7 5a 87 3d 7d 34 b9 3c
       -0.06514332 -0.014888944 0.06609135 0.022608036
000060 37 cc 4a 3a 3d 2b e1 bc 49 a1 97 bb 55 9b 8b bc
       0.0007736119 -0.027486438 -0.004627381 -0.017041842
000070 fd 01 8e bd 0b 79 03 bd 21 0c 47 3d 6e 01 d6 bc
       -0.06933973 -0.032097857 0.04859555 -0.026123729

encoder1.conv.1.running_mean f4 [32]
000000 ff af b5 3d 66 79 de 3e 1f 81 ef 3e 4e 22 cf be
       0.08871459 0.43451995 0.467782 -0.4045586
000010 dd bc 1f 3e 6b 4f 87 be 70 a0 04 bf 23 0e a2 bc
       0.1559939 -0.2642778 -0.5180731 -0.019782132
000020 7b 08 04 3e bd 2e 83 3e 24 89 1f 3e 67 8e 87 be
       0.1289386 0.25621596 0.15579659 -0.26475832
000030 4a c1 0e be 63 b4 a0 3e 99 11 8f be 15 fc 0d bd
       -0.13940921 0.31387624 -0.27943113 -0.034664232
000040 09 37 8f be fa 2b 0e bf a1 69 60 3e 11 1c 58 3e
       -0.27971676 -0.5553585 0.21915294 0.21104456
000050 62 92 da be e2 32 16 be fb 5d da 3e 68 8c 49 3e
       -0.42689806 -0.14667848 0.42649826 0.19682467
000060 22 d6 94 3e 16 b4 f8 bd f4 0a 13 3e 0c 66 f5 3e
       0.2906962 -0.12143724 0.14359647 0.47929418
000070 1c 88 32 3e 00 56 5f be c0 bd 02 bd ad d9 0c 3f
       0.17434734 -0.2181015 -0.03191924 0.55019647

encoder1.conv.1.running_var f4 [32]
000000 f1 6e bb 3d 29 88 55 3e e2 be e8 3d 65 46 c2 3b
       0.0915202 0.20852722 0.11364533 0.005928802
000010 5e a3 85 3f 24 3f b2 3e dc 06 23 3c 25 ec be 39
       1.0440481 0.34813797 0.009950366 0.00036415565
000020 e3 56 bd 3c 92 cf 25 3b 16 27 0a 39 66 a8 d3 3e
       0.02311272 0.0025300724 0.00013175266 0.41339415
000030 a4 7b 76 3d aa 7d 2f 3d 82 f3 90 3c 95 0d 04 3f
       0.060176507 0.042844452 0.017694239 0.51583225
000040 be 99 b6 3b 7f fa 60 3d 6b d3 00 39 2e 8c b0 3b
       0.0055725267 0.05492639 0.0001228579 0.0053878045
000050 d3 5a 0c 3f e6 ec 9c 3f 2c 60 f2 3b 48 3f 13 3f
       0.54826087 1.2259796 0.0073967185 0.57518435
000060 a5 a2 13 3e f7 1f b4 3c 0e 94 88 3c c3 34 eb 3e
       0.14417513 0.021987898 0.01667216 0.45938691
000070 19 68 81 3f 60 31 e4 3d 7e 53 66 3d f2 6a 05 3e
       1.0109893 0.1114223 0.056231968 0.13029078

encoder1.conv.3.weight f4 [32, 32, 3]
000000 3e 8d 9e bc b1 0f c7 bd 9f c8 72 bb 67 b8 6c 3d
       -0.019354459 -0.0971979 -0.003704585 0.057793047
000010 75 29 27 bd 87 08 fe bc f0 ea 9f bd b5 5a 39 3d
       -0.04081102 -0.031009926 -0.07808483 0.04525252
000020 e1 0c 26 3d 0f b9 ab 3d 99 2f 95 3d e6 76 66 bc
       0.040539626 0.083849065 0.07284469 -0.0140664335
000030 05 53 3b bd 8b 59 4d 3d 33 79 a3 bd 28 b6 db bd
       -0.04573347 0.050134223 -0.07982101 -0.10728103
000040 e5 89 00 bc fe 30 c5 3d be 64 89 bd 0e 07 9e bd
       -0.007845377 0.09628485 -0.06708668 -0.07716189
000050 0f ad b8 3c 11 26 58 bd 3a fc 71 3d ed a4 a0 bd
       0.022543458 -0.052770678 0.059078433 -0.07843957
000060 57 1a a6 bc 3a a7 be 3c 7e cf 0f bd 19 23 2e bd
       -0.020276232 0.0232731 -0.03510999 -0.04251394
000070 b1 97 80 bd 10 ee a4 bd b5 d8 45 3d 6f 44 e1 bb
       -0.06278933 -0.08053219 0.04830237 -0.006874613
000080 f7 8b 82 bd 44 83 8d bd f2 87 ba 3d 3a ba 84 3b
       -0.063743524 -0.069098026 0.09107961 0.0040505202
000090 f3 bc 60 bd df dc 66 bd dd 39 ec bd a1 71 71 3d
       -0.054867696 -0.056362983 -0.11534474 0.058946256
0000a0 31 e3 8c 3d 0d f7 92 bd 18 6d f3 3d 0a 6c b6 b9
       0.06879271 -0.071760274 0.11886042 -0.0003479424
0000b0 c2 98 10 3e 3d 2f 51 3c ce 25 c9 bd 20 0c 8a 3d
       0.14120772 0.01276761 -0.09821664 0.06740594
0000c0 95 a8 f5 3c 78 38 fb bd 3e 36 58 bb 0f 31 73 3d
       0.029987613 -0.1226663 -0.0032991315 0.059372958
0000d0 2a 78 9a 3d 39 0e e3 3c c5 8d 44 3d 92 12 d1 bc
       0.07542451 0.027716743 0.047986764 -0.02552155
0000e0 af 7e 96 bd 44 b7 f4 3d 99 f3 92 3d 27 4e 62 3d
       -0.07348382 0.11949018 0.07175369 0.055250313
0000f0 d0 86 20 3d 0c 9c 9e bd ed f0 85 3d b9 45 1f 3d
       0.039191067 -0.07744607 0.065400936 0.038884852
000100 85 5b ce bd 53 36 bc 3c 6c c8 e7 3d 91 ba d1 3d
       -0.1007605 0.022975123 0.11317524 0.10240663
000110 71 1a 95 3d 0e 0d fa 3c 89 5d 60 bb b1 4d de bd
       0.07280434 0.030523803 -0.0034235439 -0.10854662
000120 26 0b d1 3c 84 43 c7 bc 0c ea bb 3d 90 0f c1 3d
       0.025518011 -0.024324186 0.091755 0.094267964
000130 c7 c2 03 3e a6 d6 1e bd ff a4 56 3d 16 d1 00 bd
       0.1286727 -0.038778923 0.052403446 -0.0314494
000140 6e f0 b7 bd 51 a8 2d bd a4 62 92 3d 8b df cb 3d
       -0.08981405 -0.042396847 0.071477205 0.09954747
000150 2c eb 65 3d f3 de b1 bc 52 af bd 3d 60 03 aa bc
       0.05613248 -0.021712756 0.09261955 -0.020753562
000160 5c 09 9f bc 27 03 21 3c c0 40 45 bd 73 ac df bd
       -0.019413643 0.009827412 -0.048157454 -0.10921564
000170 6a 69 75 bd bf 1b 88 3c e0 a1 84 3d 73 92 a5 3d
       -0.059914984 0.016614793 0.06476188 0.080845736
000180 e3 f7 c4 bc 52 ec 3d 3d 0e 64 57 bd 93 15 d1 bb
       -0.024043983 0.04636795 -0.052585654 -0.0063807457
000190 b2 23 8b bd 47 67 5d 3d bc 64 1f bd d6 dd da 3c
       -0.06793918 0.05405357 -0.038914427 0.026717108
0001a0 35 70 8a ba 10 86 fa 3c 4a b0 8c 3d 79 d4 df bb
       -0.0010562005 0.030581504 0.06869562 -0.0068307486
0001b0 e1 70 b7 bd 19 48 e7 3b ed e4 43 3b c0 8f 2d bd
       -0.08957077 0.0070581553 0.002989109 -0.04237342
0001c0 8d 44 02 3c bb 91 9d 3d c1 80 c7 bd 7b b9 c0 bd
       0.007950914 0.076938115 -0.09741355 -0.094103776
0001d0 b9 a8 4e bc ad 63 32 bd 65 f0 5d 3d e3 c8 f8 3b
       -0.012613469 -0.04355209 0.054184336 0.007592307
0001e0 d1 f4 84 3c fc 20 0f 3d 5c 8b db bd 53 4b a7 3b
       0.016230019 0.034943566 -0.1071994 0.005105415
0001f0 5e 0c 8d 3d 41 56 bf 3b 56 2c 2a 3d b2 65 17 3e
       0.068871245 0.0058391397 0.04154619 0.14784887
000200 3e 91 0f be 57 6c 39 3d d2 91 a7 3d d9 64 04 bd
       -0.14020249 0.045269337 0.0818211 -0.03232274
000210 fd 1f 2f 3d 36 c6 02 bd 50 a3 d6 bb 10 bf 01 bd
       0.042755116 -0.03192731 -0.00655023 -0.031676352
000220 eb 2d 63 bd c0 0c 90 bd 58 47 ba bd 2c 69 90 3d
       -0.055463713 -0.07033682 -0.09095639 0.0705131
000230 da ad 35 3d 8c 80 5e 3d 50 9a b3 3c 6f d8 bb ba
       0.04435525 0.05432181 0.021924168 -0.001433147
000240 be 34 9b bd 12 f8 b7 bd 01 1f 23 be a0 d0 07 bd
       -0.07578419 -0.089828625 -0.15929796 -0.033157945
000250 67 23 09 bc b7 d1 9d 3d 54 6a 36 3b 65 24 00 3c
       -0.008370257 0.077060156 0.0027834373 0.007821177
000260 a5 f3 a3 3c ee 34 41 bd bf 90 2e 3d 0d d2 24 bd
       0.02001364 -0.04716962 0.04261851 -0.040239383
000270 ad 76 6a bd d3 d5 c6 3d 5d 3c c0 3d 15 8f 2b bd
       -0.057242084 0.097087525 0.093865134 -0.0418845
000280 b5 23 d2 3d 98 11 83 3d ad 76 f2 bd 93 24 a5 bc
       0.10260717 0.0639984 -0.11839042 -0.020159042
000290 4c 4e 0e bc e5 5b d5 bd ca 82 83 3a a5 9c 99 bd
       -0.00868566 -0.10417918 0.0010033485 -0.07500581
0002a0 6e c6 b4 3d 50 61 83 bc 64 65 32 bd 6a fc e9 bd
       0.0882691 -0.016037613 -0.043553725 -0.11425097
0002b0 db 91 1c bd 00 d8 e9 bc 42 3e 2c bc f8 a7 e0 3a
       -0.038225036 -0.02854538 -0.01051289 0.0017139902
0002c0 9c ae 81 3c f0 93 d9 3d 69 02 f8 bc 23 a4 2f 3d
       0.01583033 0.1062392 -0.030274587 0.042881142
0002d0 63 28 a5 bd e8 f1 6b 3d ae e3 28 bd f9 4e 3b bc
       -0.08064344 0.057603747 -0.041232757 -0.011432403
0002e0 be f6 ab bc dc 3a 3e 3d 82 ee 3e bd 52 ff d7 bc
       -0.02099168 0.04644285 -0.046614178 -0.026366863
0002f0 cc 9e 89 bd 8e 5d ae 3d 95 92 24 3d b0 73 85 bd
       -0.06719741 0.08513938 0.040178854 -0.06516206
000300 16 cd 5f bc c3 d1 9b 3c 8a 91 05 3e 5d 61 a5 bd
       -0.013659736 0.01902092 0.130438 -0.08075211
000310 66 94 46 bc dd 50 d7 bc ee 65 0f bc 5f 59 85 3d
       -0.012120342 -0.026283676 -0.008752329 0.06511187
000320 e7 83 4c 3d 3f 48 a9 bd cd ef d0 bd 82 7a 29 bd
       0.04993048 -0.08265733 -0.10201988 -0.0413766
000330 28 79 e3 bd 7e 1f a2 3d 14 48 bb 3d cc c9 82 bd
       -0.11107093 0.07916163 0.09144607 -0.06386146
000340 da 2d de bc 24 85 94 bd 81 87 8b bd 07 e1 c1 3c
       -0.027121473 -0.07251957 -0.06812955 0.023666872
000350 c5 12 05 3d ed 83 8b bc a4 5d a0 bd 19 eb 93 3d
       0.032488603 -0.01703068 -0.078303605 0.07222576
000360 1e d6 1a 3c b4 5c 5b 3d 19 57 e3 3d a8 e4 9b bd
       0.009450464 0.053555205 0.11100597 -0.07611972
000370 ab 27 bc 3d f0 d4 bd 3b 96 b4 1d be f6 24 57 bd
       0.091872536 0.0057932064 -0.1540092 -0.052525483
000380 8b 37 1e be d3 3f f2 bd 5d 1d 7e bd a7 29 da bd
       -0.15450875 -0.1182858 -0.06203972 -0.10652476
000390 05 c8 6a 3d ad 70 b0 3d 3a c1 21 bd 61 fe 00 bc
       0.05731966 0.08615241 -0.039490916 -0.007873149
0003a0 9b af 98 3d d9 f0 ea bc 3f 67 42 3c 05 b2 5b bc
       0.07455369 -0.028679298 0.011865436 -0.013409142
0003b0 c4 a2 74 bd a0 6e 80 3d 50 87 fa 3c 07 a0 74 bd
       -0.059725538 0.062711 0.0305821 -0.059722926
0003c0 59 26 d5 3c 02 57 d3 bb e8 e6 cb 3d 3f 14 69 3d
       0.026019262 -0.006449581 0.09956151 0.056904074
0003d0 b3 ef b2 3c 90 87 4c 3d e6 9b b7 3c 3d ad 81 3d
       0.021842813 0.04993397 0.022413205 0.06331871
0003e0 bb bf c3 3d f6 93 d2 bd b4 75 dc 3c c7 af cc bd
       0.09558054 -0.102821276 0.026911594 -0.09994464
0003f0 ed 97 6f 3d fb 25 cb bd 65 8f 27 3d 25 a1 d8 bc
       0.058494497 -0.099193536 0.040908236 -0.026444027

encoder1.conv.3.bias f4 [32]
000000 5d 4d c0 bd f2 63 a1 bd c3 ac 8c 3b 22 24 4d bd
       -0.09389756 -0.07880391 0.0042930557 -0.050083287
000010 b3 55 84 3d d0 e7 08 bd 3d 9b a1 3d 5d 39 a1 bc
       0.06461658 -0.0334242 0.078909375 -0.019680673
000020 e3 b9 14 3d fd af 97 3d 71 68 e7 bc 89 dc 75 3d
       0.036310088 0.07406614 -0.028248044 0.06002477
000030 fc 35 8e 3d d3 1f a3 bd 78 b8 d4 3c 9f 6b 1d bd
       0.069438905 -0.07965054 0.025966868 -0.038432714
000040 b4 66 96 bd fc e7 1f 3d e2 0c 83 3c 28 61 81 bd
       -0.07343808 0.039039597 0.015997354 -0.06317359
000050 a9 00 bd bd a1 e4 04 bd be 59 d8 bc 8a 26 7c 3d
       -0.092286415 -0.0324446 -0.02640998 0.06156019
000060 bf 55 e9 bd 26 29 bb bd df 2a a2 bd 97 ad 3a 3d
       -0.11393308 -0.09138708 -0.07918333 0.045575704
000070 c3 d9 71 bc 8a c6 a3 bd 67 20 a8 3c e5 95 a8 3d
       -0.014761391 -0.07996853 0.020523263 0.08231715

encoder1.conv.4.weight f4 [32]
000000 4c bb 75 3f 83 45 7b 3f 4e f9 70 3f 3b a5 7d 3f
       0.9598892 0.9815294 0.9413041 0.99080247
000010 2c 86 7e 3f be c2 70 3f ed 4c 6a 3f 86 27 78 3f
       0.9942348 0.94047153 0.9152363 0.9693531
000020 28 32 78 3f a2 33 75 3f d8 64 69 3f c5 ad 86 3f
       0.9695153 0.9578191 0.911695 1.052178
000030 6d 1c 7b 3f af 09 6e 3f 7d bd 6f 3f 5a d2 91 3f
       0.9809025 0.92983526 0.9364851 1.1392319
000040 e3 79 80 3f 1e 45 83 3f 09 09 7e 3f 78 23 86 3f
       1.0037197 1.0255468 0.99232537 1.0479574
000050 ed 10 73 3f ac da 73 3f e9 78 52 3f 71 82 8e 3f
       0.949477 0.9525554 0.82215744 1.1133558
000060 e9 41 82 3f 1b 56 7e 3f e5 49 85 3f 48 41 8c 3f
       1.0176364 0.99350137 1.0413176 1.0957422
000070 41 26 6b 3f a4 78 80 3f 64 aa 79 3f 7f 50 7a 3f
       0.91855246 1.0036817 0.9752562 0.9777908

encoder1.conv.4.bias f4 [32]
000000 f6 e0 ce bc d3 91 7c 3c 7c 2c cd bc 2d 5a ea bb
       -0.025253754 0.015415627 -0.025045626 -0.007151863
000010 57 a5 9b bc 0b 02 0c bd 2d 47 3c bc eb 3e 8c bc
       -0.018999739 -0.034181636 -0.011491579 -0.017119845
000020 b9 e8 68 3d 31 ac d7 bc a8 4c e1 bd 05 ec 78 3d
       0.056862567 -0.026327224 -0.11000949 0.06077196
000030 4e 5a cf bb d6 74 9c ba 49 c5 b1 bc ea c4 d7 3d
       -0.006327904 -0.0011936675 -0.021700518 0.10535605
000040 25 d8 5f bd 5c bd fe 3c ba e8 9e 3c 51 e9 97 3d
       -0.05464949 0.031096153 0.019398082 0.074175484
000050 ec df dd 3c ae b6 af bd 9f 09 d1 bd f9 43 14 3e
       0.027084313 -0.08579765 -0.10206913 0.14479055
000060 06 d4 f0 bc 03 bd c1 3b c0 f4 fe bc fb 54 9b 3d
       -0.029397976 0.0059124245 -0.031122565 0.07584568
000070 47 bb ac bc 29 ce b6 3c ea 50 55 bb f2 43 7c bc
       -0.021085395 0.022315102 -0.003254945 -0.015397059

encoder1.conv.4.running_mean f4 [32]
000000 d4 48 06 bd 06 81 4e be c8 73 8d be a0 77 cd be
       -0.032784298 -0.20166406 -0.27627397 -0.4013033
000010 a3 c0 09 be 53 f6 ab 3c 9d 3f 2a 3c bd 3d 70 be
       -0.13452391 0.02099148 0.010391143 -0.23461051
000020 8b 95 01 3e c4 f3 f6 3c a9 a2 93 3e 77 11 20 be
       0.12654702 0.030145533 0.28835037 -0.15631662
000030 4f a8 d4 be 5a 15 ac 3e 78 2c 18 3f fa dd 61 be
       -0.4153466 0.3361004 0.59442854 -0.22057334
000040 f7 10 d3 be 95 ff 84 bd 8f c4 e9 bc 59 a7 d4 be
       -0.4122388 -0.06494061 -0.02853611 -0.41533926
000050 b0 e3 d9 be d2 95 99 3d f5 39 ae 3e 10 b9 ef bd
       -0.42556524 0.07499279 0.34028593 -0.1170522
000060 6d c4 44 bd e9 e2 4c be 83 ff 68 be 06 a1 86 3e
       -0.04803889 -0.20008434 -0.2275372 0.26294726
000070 c5 ad e7 3e 4e 6f f3 be e7 2b 1d 3e de 73 5b bd
       0.45249763 -0.47545856 0.15348779 -0.053577296

encoder1.conv.4.running_var f4 [32]
000000 e4 46 6c 3f ce 96 33 3e a0 dd 2d 3f ac 28 0c 3f
       0.9229567 0.17537996 0.679163 0.5474956
000010 bc fe d9 3e 81 e9 b1 3e 40 72 2a 3e b4 ea 14 3f
       0.4257716 0.34748462 0.16645145 0.5817063
000020 c2 3d 9d 3e 51 ce 47 3f 93 58 39 3f 75 aa 47 3e
       0.3071118 0.7804919 0.7240078 0.19498618
000030 b0 25 b7 3f 7a 86 59 3f 71 1f d3 3f 80 17 16 3e
       1.4308376 0.8497082 1.649397 0.14657402
000040 2e d1 42 3f 0a bf 1e 3f 7e 0c 84 3e 0d 96 9e 3e
       0.7610043 0.6201025 0.2579078 0.30973855
000050 92 b3 1c 3f fd 28 e0 3e 2a b1 f9 3e 4b c7 b8 3d
       0.612115 0.43781272 0.48767978 0.09022387
000060 8f 1d 00 3f 9b fa dd 3e f5 00 76 3e 58 9b 4f 3e
       0.500451 0.4335526 0.24023803 0.20274103
000070 6d a1 26 3f 20 46 40 3f cc 85 3a 3f d5 0b c7 3e
       0.65090066 0.75107 0.7286041 0.38876215

encoder1.res_conv.weight f4 [32, 1, 1]
000000 48 a3 d3 be 20 74 2b bf 37 bf f1 bd 16 7e ae be
       -0.4133551 -0.6697407 -0.118040495 -0.3408057
000010 db ea ab be 52 9f fd be d0 ae 69 3f 1f 6b 26 bf
       -0.33577618 -0.49535614 0.9128237 -0.65007204
000020 f6 07 92 be 61 4a 65 3f 35 c5 94 3e f0 0a 13 3f
       -0.285217 0.8956662 0.29056707 0.57438564
000030 19 4d 85 3e 8b 15 86 3e c3 48 68 3f 5d 59 89 bd
       0.26035383 0.2618831 0.90736026 -0.06706498
000040 4a 7a 43 bf 38 0e 52 3f 60 17 da be 9a 4a 63 3f
       -0.76358473 0.82052946 -0.4259596 0.8878571
000050 95 d4 29 bf f7 45 41 3f 62 af 0e bf 32 b2 ad be
       -0.6634 0.7549738 -0.5573636 -0.33925015
000060 12 90 22 bf e8 63 32 bf 3b 55 c1 3d 02 1d e1 be
       -0.63501084 -0.69683695 0.094400845 -0.43967444
000070 60 43 10 3f 6b 4e 2b be 65 d1 21 bf 71 13 a3 be
       0.56352806 -0.16729133 -0.63210136 -0.3185077

encoder1.res_conv.bias f4 [32]
000000 59 3c e7 3d 55 84 0a 3f 41 50 90 be 99 99 31 bf
       0.11290807 0.5410817 -0.2818623 -0.69374996
000010 96 75 66 3d 53 89 58 3f 18 cf 49 3e 49 f9 3b be
       0.056264482 0.8458454 0.19707906 -0.18356813
000020 a3 03 22 3f d0 04 26 bf f8 54 f6 be 8f aa cc 3e
       0.632868 -0.64851093 -0.481117 0.39973876
000030 f1 7f 9c be 64 fc 54 3f 2d 57 71 bf c0 e9 38 3d
       -0.30566362 0.8319762 -0.94273645 0.045144796
000040 9d 70 c9 be 51 15 7b 3f 3a 80 fa 3e 4c fe 2e 3f
       -0.3934373 0.980794 0.48925954 0.68356776
000050 e5 44 3a 3f 01 36 51 bf 97 6f 3d be 55 be 12 bf
       0.72761375 -0.8172303 -0.184996 -0.57321674
000060 ce 0d 1e 3f 64 89 2d 3f 2e f6 22 bf 41 9c 86 3f
       0.61739814 0.67787766 -0.6365689 1.0516435
000070 6e 59 59 bf 72 a1 a2 3e ef 10 28 3f cc cd d9 3d
       -0.84902084 0.31763798 0.6565084 0.10634956

encoder2.conv.0.weight f4 [64, 32, 3]
000000 bb 84 24 bc 3f 53 44 bc 55 db 1b 3c 37 cb d3 3d
       -0.010041411 -0.011982738 0.009512742 0.103414945
000010 fc b1 83 bd 28 09 e7 3d 2d 90 a1 3c 55 5d 96 3c
       -0.06430432 0.11281043 0.019722069 0.018355051
000020 95 e4 74 bd 45 cb 87 3d 0b 81 a6 3d 05 f4 c3 3d
       -0.059788305 0.066305675 0.08130082 0.095680274
000030 34 c2 72 bb cc 52 c6 bc ee 22 0b 3e bb f5 01 3e
       -0.0037042024 -0.024209403 0.13587543 0.12691395
000040 66 48 1b bd 9f de 60 3d c6 53 93 bd ed 8a 80 bb
       -0.03791084 0.054899808 -0.07193713 -0.0039228112
000050 7b a0 82 bc 7e 70 a3 3d fc 6a a5 3c 9a 8c 1b 3d
       -0.015945664 0.079804406 0.020192616 0.037975885
000060 79 c6 4b bb 82 45 64 3d 5b 8f 95 3d 01 50 b3 bb
       -0.003109364 0.05573035 0.073027335 -0.0054721837
000070 34 1b ca 3d 8e 3f e3 3b af e5 a1 3d 93 a1 52 3d
       0.0986847 0.0069350665 0.07905137 0.05142362
000080 0c 0a d1 3a 1a 52 2c 3c 75 60 bc 3c d7 ff 66 3d
       0.0015948429 0.010517621 0.022995213 0.05639633
000090 74 e8 46 bd 2c 01 f2 3c da 03 e2 bd 27 04 b8 bd
       -0.04856153 0.029541574 -0.11035891 -0.08985167
0000a0 c4 11 98 3d f2 8c 83 3c 7f 39 d6 3d 22 d7 dd 3d
       0.074252635 0.016058419 0.10460185 0.10832049
0000b0 d2 ef 00 3e 9a 45 1b bd 74 26 33 3e b3 db 1e be
       0.12591484 -0.037908174 0.17495137 -0.15513496
0000c0 ac 09 f7 bd 65 02 60 3d 76 45 77 3d cb b4 09 3d
       -0.12062392 0.054689784 0.060368977 0.033619683
0000d0 ad 18 0d 3d 44 7c bc 3d 08 92 e8 bc 97 d3 bc 3c
       0.03444736 0.09203389 -0.028389946 0.023050113
0000e0 7a df df 3c 0f dd 4e bc 0c 78 7c bd 59 b0 86 bd
       0.027328242 -0.012625947 -0.061637923 -0.065766044
0000f0 12 4d 81 bc 86 d1 a7 3c b1 89 e0 3d da 3b 5a bd
       -0.01578382 0.02048565 0.109637626 -0.053279735
000100 b4 25 d1 3d 58 31 b7 3b 52 9f 0c 3e 96 a2 3f bd
       0.102122694 0.005590599 0.13732651 -0.046785913
000110 c7 4c fd 3d aa 4a 38 bd bd b5 63 bd 5a c7 37 bd
       0.1236816 -0.04499308 -0.05559324 -0.04486785
000120 b5 47 c3 3d 55 07 7c bd d8 0c e8 3c 89 1f d0 bc
       0.095351614 -0.06153043 0.028326437 -0.025405662
000130 44 c9 bf 3d 84 41 7a bb 11 32 fc bb 72 3a 43 3d
       0.0936456 -0.0038186023 -0.007696398 0.04766316
000140 29 22 00 bd e1 81 dc bd 91 8b c2 3c 9b bb 73 3d
       -0.031282578 -0.1076696 0.023748191 0.059505086
000150 9a 6a 83 3d 96 fc 34 bd c9 40 5a 3d 4e 1f e8 3d
       0.06416817 -0.044186197 0.05328444 0.11334096
000160 02 41 29 bd 5c 0a 8f 3d ba 13 16 bd 17 62 18 bb
       -0.041321762 0.06984398 -0.036639906 -0.0023251825
000170 09 f2 51 bb b8 37 16 3c 14 a2 da bc e0 72 d2 3d
       -0.0032035133 0.009168558 -0.026688613 0.10275817
000180 0e d4 97 bd 70 a4 7d bd 23 c9 2a 3d a1 a6 c7 bc
       -0.07413493 -0.061924398 0.041695725 -0.024371447
000190 34 a8 b5 bd 1d b8 3b 3d 04 ef 58 3d dd ee aa 3d
       -0.08869973 0.04582988 0.052962318 0.08346341
0001a0 f5 a8 64 bd 62 22 73 bd 21 c4 92 bd 81 50 16 be
       -0.055825192 -0.059358962 -0.07166315 -0.14679147
0001b0 8c 49 81 bd f0 65 8e 3d 76 dd 25 3d a1 fd 5b bd
       -0.06312856 0.06953037 0.040494405 -0.053708676
0001c0 e0 38 04 bd 7a 1a f5 3c ed a1 8e bd b5 18 dd bd
       -0.032280803 0.029919852 -0.06964479 -0.10795728
0001d0 02 50 bd bd 56 d7 85 3d fe bc a4 bd 4d c9 56 bb
       -0.09243776 0.06535213 -0.0804386 -0.0032773793
0001e0 7f 3a 25 3d af af 46 bd 0d b9 20 be db 6d b2 bd
       0.04033899 -0.04850739 -0.15695591 -0.087123595
0001f0 46 3b ca bc 6d 65 db bd f0 ae 34 be fa e5 fc bd
       -0.024686467 -0.10712705 -0.17644858 -0.12348552
000200 1e 2b a4 bd 97 72 5b bc 9b c8 e0 3b ce c0 e7 3d
       -0.080160365 -0.01339402 0.0068598515 0.113160715
000210 c5 a7 ea 3c 52 72 32 bd 20 44 28 ba a1 0a 00 bd
       0.028644452 -0.043566056 -0.0006418843 -0.031260137
000220 e1 e9 e9 bd 4a c5 6e bd 63 52 cf bd a6 e4 b9 bd
       -0.11421562 -0.05829362 -0.10123136 -0.09076814
000230 c9 4a 6c bd 75 26 f8 3d a0 36 db 3c 8a e7 b1 3c
       -0.05768851 0.1211671 0.026759446 0.021716852
000240 e8 da 9f 3d b2 cd d1 3d 6a c2 10 bd cb 67 0e bd
       0.07805425 0.102443114 -0.035341658 -0.034766953
000250 dd 0e 4a bd a1 45 1f bd 12 31 50 3d b5 b6 df 3d
       -0.04933058 -0.038884763 0.050828047 0.109235205
000260 76 cf 8a bd 6c 27 e5 3d c4 ac d0 3c 5a 65 cd 3d
       -0.06777851 0.1118916 0.025473006 0.10029097
000270 c3 5c 93 bc 70 a7 a2 3d 7e 9a 53 3d 2e 6b 2b bd
       -0.017988568 0.079420924 0.051661007 -0.04185026
000280 bf 8a 0c 3d 6c 90 a5 bd c2 1c 87 bd 69 87 1a b9
       0.034312006 -0.08084187 -0.06597282 -0.00014737029
000290 2f d0 7c 3d f8 90 06 3d 0f 04 43 3d f3 aa e4 3c
       0.061721977 0.032853097 0.047611292 0.027913546
0002a0 85 4e 5e bc 4e 3d cc bc 28 3b f5 3c d1 7f 77 3d
       -0.013568525 -0.024931576 0.029935434 0.06042463
0002b0 30 22 0d bc 9f 14 6a bd 35 7a c3 3d 8b 2f eb 3d
       -0.008614108 -0.057148572 0.095447935 0.114836775
0002c0 4d 50 c4 3d a7 12 79 bd 9d b0 24 3e c6 8d 7f bd
       0.09585629 -0.060808804 0.16082998 -0.062391065
0002d0 0b ed c3 bd d3 39 10 bd 3a d2 16 bd ee 72 aa 3c
       -0.09566697 -0.035211395 -0.03682158 0.020806756
0002e0 89 c6 23 3d e4 7c 06 bc f3 32 c6 3d 13 29 b0 3d
       0.03998426 -0.008208487 0.096776865 0.08601584
0002f0 48 26 20 bc 10 01 13 3d e6 e6 37 bd 11 ee 2a bd
       -0.009774752 0.035889685 -0.044897936 -0.041730944
000300 b9 b5 78 bb 9d 92 0f bd 6d 62 34 bd 83 03 a1 3d
       -0.0037950112 -0.03505193 -0.04403918 0.07861998
000310 e3 8f 1a be 92 ce be bd 8a 84 59 3d b5 98 a9 3c
       -0.15093951 -0.09316744 0.053104915 0.0207027
000320 e6 e4 68 bd 40 8e c8 3d 6e 3a a2 bb 0b 7d ac 3d
       -0.05685892 0.09792757 -0.004950813 0.084222876
000330 83 44 67 bd 6c 40 99 3d ec 41 1e 3d d9 85 b5 3c
       -0.056461822 0.074829906 0.038637087 0.02215855
000340 b8 3a cb bd 63 be c5 3c 83 89 d5 3c ed 21 c1 3c
       -0.09923309 0.024138635 0.026066547 0.023575747
000350 e9 8f 73 bd 3c f8 a1 bd a6 3a 7d bd 11 27 07 3d
       -0.059463415 -0.07908675 -0.06182351 0.03299624
000360 cd 0f 03 3d 10 4a 67 bd ba a8 6b bd c9 85 ee 3d
       0.03199749 -0.056467116 -0.057533957 0.11646611
000370 a6 20 9f 3c 1b 5a 1d 3a 0e 22 35 bb 22 ec 6c bd
       0.019424748 0.00060025015 -0.0027638706 -0.05784238
000380 a4 8e b5 3c a0 82 d3 3d 70 96 da bb 3a 2a ef 3b
       0.022162743 0.10327649 -0.0066707656 0.007298735
000390 b0 fe 40 bd 34 74 0d 3d 6e c8 37 bd e7 d1 88 3d
       -0.04711789 0.034534648 -0.04486888 0.06680661
0003a0 bd f9 09 bd f4 da 5f bd ff ec 6d bd 27 83 8d 3d
       -0.033685435 -0.05465217 -0.058087345 0.06909781
0003b0 a1 dd 18 3d be 1e 13 3e f7 78 76 be bb c0 29 3e
       0.037320737 0.14367196 -0.24069582 0.16577427
0003c0 6d 27 b5 3c 85 1f 13 bd 25 98 aa bc 72 73 b1 3d
       0.022113526 -0.03591873 -0.020824501 0.086645976
0003d0 67 e5 82 bd 02 35 ed 3c 7e e1 66 3d 4c ab 35 3d
       -0.06391411 0.02895594 0.05636739 0.044352815
0003e0 32 91 4c 3c 1a f1 e7 3c e8 4f 58 3d 85 d5 c5 3d
       0.012485789 0.028313208 0.05281058 0.09659866
0003f0 5a 2d 52 3d 46 78 85 bd 4e 88 ae bd 5b 33 9d 3d
       0.051312782 -0.06517081 -0.08522092 0.07675811

encoder2.conv.0.bias f4 [64]
000000 48 27 15 ba b8 76 1c bd 8f 9c 80 3d 82 62 81 3c
       -0.0005689752 -0.038199157 0.06279861 0.015794042
000010 d7 d9 05 bd f7 6e 9c 3d 28 30 8d 3d e2 84 7f bb
       -0.03267845 0.07638352 0.06893951 -0.0038989116
000020 f9 5c c3 3d c6 15 5b bd 0c ee a1 3a 4a b5 58 3d
       0.095392175 -0.05348756 0.0012354269 0.052907266
000030 d6 5a c5 bc ae 40 a0 bc 09 6f 88 bd 54 f3 28 3d
       -0.024091166 -0.019562092 -0.06661803 0.04124768
000040 b2 fc ba 3d 11 07 c2 3d 95 a6 d2 3c 7b ba 31 bd
       0.09130229 0.09474004 0.025714198 -0.043390732
000050 4c 44 73 bd 44 da bd bd d7 00 20 bd ed 69 81 3d
       -0.059391305 -0.092701465 -0.0390633 0.06319032
000060 cf 85 4c 3d b8 25 13 3d 1c 22 1c bd 7a 23 9b 3d
       0.049932297 0.035924643 -0.038118467 0.07575126
000070 a4 91 bf bb 83 10 cc bc e1 8d 50 3d ce 5f 5c bd
       -0.005846219 -0.024910217 0.050916556 -0.053802304
000080 da c8 b5 3d 45 d4 b8 3c ae 24 dc 3b 13 fb 8a 3d
       0.088762 0.022562156 0.0067182397 0.0678617
000090 08 14 9e 3d 2f dd c6 bd 0b 4d ab bd b3 87 54 3d
       0.077186644 -0.09710156 -0.08364304 0.051887225
0000a0 bc 1e 40 3c 49 6b 71 bd 5a c9 88 3d 71 d7 8a 3d
       0.011726078 -0.058940206 0.0667903 0.067793734
0000b0 fb 8e b7 3d 3c f8 84 3d 1b 3a 17 3a 6d 56 92 3c
       0.08962818 0.064926594 0.0005768851 0.017863477
0000c0 0e 37 19 3d 87 bf 14 bd fb 9d b1 bd 9e 24 23 3d
       0.03740602 -0.036315467 -0.086727105 0.039829843
0000d0 cb 9b 16 bd 58 2f 82 3d 11 54 a5 bd 82 f0 b0 3d
       -0.03676967 0.06356686 -0.08072675 0.08639623
0000e0 b5 1b 0c bc f1 70 75 bd 0f 80 2b bd 1d a4 96 bd
       -0.008551528 -0.059922162 -0.041870173 -0.07355521
0000f0 4a 47 c7 3c b8 32 f4 bc e8 53 bf bd 5d e5 21 bd
       0.024325985 -0.02980934 -0.09342176 -0.03952538

encoder2.conv.1.weight f4 [64]
000000 e1 7e 63 3f 00 65 72 3f d9 07 82 3f 14 7f 7a 3f
       0.88865477 0.94685364 1.0158645 0.97850156
000010 f4 be 89 3f 18 72 7c 3f fc e5 79 3f 13 36 8a 3f
       1.0761399 0.98611593 0.97616553 1.0797752
000020 df bd 60 3f 99 a3 7e 3f 89 b2 98 3f a2 40 87 3f
       0.8778972 0.9946838 1.1929485 1.0566599
000030 bc ce 7a 3f da 4b 89 3f 79 5e 72 3f 22 46 6d 3f
       0.979717 1.0726273 0.94675404 0.9268514
000040 99 45 95 3f e0 cf 7a 3f f3 49 7d 3f da 82 7d 3f
       1.1661865 0.9797344 0.9894096 0.9902779
000050 1c ee 7e 3f d0 57 7d 3f 13 9f 6c 3f 3c 9a 79 3f
       0.99582076 0.98962116 0.9243023 0.9750097
000060 a7 41 87 3f 51 1d 8c 3f 08 0f 71 3f 9a f1 7f 3f
       1.056691 1.0946447 0.9416356 0.9997803
000070 47 91 71 3f 58 52 80 3f d5 1f 72 3f 9d 1f 87 3f
       0.943623 1.0025129 0.9457982 1.0556523
000080 2d 93 7a 3f 75 de 78 3f 8d 0e 71 3f c6 07 8b 3f
       0.9788082 0.9721444 0.9416283 1.0861747
000090 68 b8 65 3f 73 0c 68 3f 1e ee 84 3f 8c 8d 9e 3f
       0.89734507 0.90643996 1.0385168 1.2386947
0000a0 e8 26 66 3f b7 e4 87 3f 40 6e 8b 3f c7 b2 84 3f
       0.89903116 1.0616673 1.0893021 1.0367059
0000b0 f5 77 72 3f a8 f9 6d 3f 47 48 78 3f bf c6 6f 3f
       0.9471429 0.9295907 0.96985286 0.9366264
0000c0 67 2d 7b 3f 65 be 8d 3f b0 29 7e 3f 0b c4 71 3f
       0.98116153 1.1073729 0.9928236 0.9443976
0000d0 c0 7f 76 3f 51 2e 91 3f 79 eb 78 3f 49 cc 7d 3f
       0.9628868 1.134226 0.972343 0.9913984
0000e0 fd 84 7d 3f 77 26 82 3f 56 1a 90 3f cf db 72 3f
       0.9903105 1.0167989 1.1258037 0.9486665
0000f0 53 7b 76 3f dc d3 89 3f 46 05 6b 3f 9b 75 87 3f
       0.9628193 1.0767779 0.9180492 1.0582765

encoder2.conv.1.bias f4 [64]
000000 fd 1a bc bd 39 d0 b5 bd d6 cd 58 bd db 66 05 3b
       -0.09184835 -0.08877606 -0.052930675 0.0020355496
000010 b7 91 af 3d e0 06 5e 3d 3a 23 37 3d ed 58 95 3d
       0.08572715 0.054205775 0.04471133 0.07292352
000020 f5 8e 12 be b6 df 54 bd 89 51 38 3e da 5c 6a 3d
       -0.14312346 -0.05197116 0.17999853 0.057217456
000030 bd ef ac 3a 4b 0c 84 3d fc 03 e9 bd 8a a2 4f bc
       0.0013194006 0.06447657 -0.11377713 -0.01267303
000040 48 06 de 3d af 88 89 3c 27 08 61 3c 11 61 49 3c
       0.10841042 0.016788809 0.013734854 0.012291209
000050 71 6d 1e bd 31 f4 42 3b ba 7d 86 bd c5 73 31 bd
       -0.03867859 0.00297476 -0.06566949 -0.043323297
000060 df 55 08 3e 6d 5e e8 3d 10 27 92 bd c0 54 32 bc
       0.13314007 0.11346135 -0.07136357 -0.010884464
000070 ef d8 8c bd 0f f5 b1 3c 1a f6 ce bc 7e b3 2f 3c
       -0.06877314 0.021723298 -0.025263835 0.010723947
000080 38 ae 41 3c 58 b5 ae bc 4f ac 14 bd 02 55 49 3e
       0.011821322 -0.021326706 -0.03629714 0.19661334
000090 14 7e 6c bd a3 52 f1 bd b5 66 d3 bb b1 c4 33 3e
       -0.057737425 -0.1178334 -0.0064514526 0.175555
0000a0 55 46 3b bd 0d 77 88 3d e7 58 91 3d 48 33 86 3d
       -0.04572137 0.06663332 0.07097035 0.0655275
0000b0 ca 1d fe bd 66 e8 98 bd cd d4 00 bd 88 9e ac bd
       -0.124080256 -0.074662015 -0.031452943 -0.08428675
0000c0 79 42 d0 bd 59 4f e5 3d d8 2b 4b bd 33 b5 1a bd
       -0.10168929 0.11196775 -0.04960236 -0.03777046
0000d0 ba 57 8c bd 0b 31 f6 3d 8a 9f 55 bc 72 75 47 bd
       -0.0685267 0.12021073 -0.013038525 -0.04869599
0000e0 71 1d 24 3c 11 67 91 3d c1 ab 4e 3e 32 a4 68 bd
       0.010016785 0.070997365 0.20182706 -0.056797214
0000f0 a3 03 7f bd 98 a6 b5 3d ba ae 95 bd 6d 1c 88 3d
       -0.062259328 0.08869666 -0.07308717 0.06646047

encoder2.conv.1.running_mean f4 [64]
000000 53 42 46 3f e5 9a e9 bd 53 54 8e 3e 50 cc 6d be
       0.7744495 -0.11406497 0.2779871 -0.2322247
000010 87 79 4f be 58 04 8e bf 5a bd 09 3f bf a4 46 bf
       -0.20261203 -1.1095076 0.5380455 -0.7759513
000020 8c f7 ef 3e cd c0 85 3e 30 2d c4 be fb 26 6f 3e
       0.4686855 0.26123658 -0.38315725 0.23354714
000030 2a 5c d9 3e 63 8c 5d bf cb b2 6f 3f 6a 72 05 bf
       0.42453128 -0.8654234 0.9363219 -0.52127707
000040 65 36 07 bf ce f9 c1 bd cc 84 e9 3e f0 08 e1 be
       -0.52817374 -0.094714746 0.45609128 -0.4395213
000050 c2 82 36 be 6f 54 02 bf 95 9c 38 3b c5 ae 55 be
       -0.17823318 -0.50910085 0.0028169502 -0.2086745
000060 d3 55 9b be 78 2d 69 be 92 74 34 3e 4b 20 e6 3d
       -0.30338916 -0.22771251 0.17622593 0.11236628
000070 f2 2b 07 3f f4 92 a6 be 73 b6 55 3f ef 33 7a be
       0.5280143 -0.3253399 0.8348152 -0.24433874
000080 d8 80 de be c8 1b 02 bd 30 04 9b be ba ab 3e bf
       -0.43457675 -0.031764776 -0.30276632 -0.74480784
000090 57 82 75 3f 36 01 bf 39 2f 88 f2 be a5 2d f1 3c
       0.9590201 0.0003643126 -0.47369525 0.02944071
0000a0 a4 61 21 3f e5 61 4a bd 8a c5 05 bf d6 8d 8c 3d
       0.6303961 -0.049409766 -0.52254546 0.068629906
0000b0 b1 ae 73 3f eb 56 ab 3f d4 1e 5a bf f0 78 1f bf
       0.9518843 1.33859 -0.8520329 -0.6229391
0000c0 27 eb e3 3f 0e 3d 33 bd b6 7e 13 bf 56 e8 74 3e
       1.7806138 -0.0437594 -0.5761522 0.23916754
0000d0 d9 19 61 bf 95 a4 ea be ab 6d 97 bf c1 d2 87 bc
       -0.87930065 -0.4582869 -1.1830343 -0.016579987
0000e0 82 a3 e8 be af b3 8d be 16 91 af be 54 4d 65 bd
       -0.45437247 -0.2767615 -0.3429038 -0.05598195
0000f0 76 dc b7 be 53 7a a6 be 43 35 84 3f a3 7a 82 bd
       -0.35910386 -0.325152 1.0328754 -0.06371047

encoder2.conv.1.running_var f4 [64]
000000 09 77 e7 3e 99 b8 6b 3f 18 3c 28 3e 37 51 ef 3e
       0.45208004 0.9207855 0.16429174 0.4674165
000010 9c 96 52 3d a3 70 2e 3f 57 db 21 3e c6 80 19 3e
       0.051413164 0.6814062 0.15806328 0.1499053
000020 ac 60 cb 3e bd da 0f 3f db 74 dd 3d 3e 4b e5 3d
       0.39722192 0.56193143 0.10813304 0.11195992
000030 e3 04 a7 3e 5c 8e 6a 3e bd 00 53 3e 2c 89 3a 3f
       0.32620916 0.22905868 0.2060575 0.7286556
000040 49 a2 46 3e dc 9c 3c 3e d7 66 b8 3e 55 8c f0 3e
       0.19397844 0.18419212 0.3601596 0.46982065
000050 77 5f 54 3e 58 a2 9b 3e f7 fb 22 3f 35 c9 81 3e
       0.20739542 0.30397296 0.6366572 0.2534882
000060 f4 7f 42 3e 8e 77 19 3e 29 4b 44 3e b7 72 39 3e
       0.18994123 0.14987013 0.19169296 0.18110166
000070 02 ba 01 3f 50 64 df 3e 04 33 ae 3e 3c bc 63 3e
       0.5067445 0.4363122 0.34023297 0.22239774
000080 2e ca 07 3e 95 94 83 3f 67 cf 7b 3e eb 34 00 3f
       0.13260719 1.0279719 0.24590836 0.50080746
000090 c7 60 c1 3e de 95 ee 3e f4 8b 3c 3e 69 61 2f 3d
       0.37769148 0.46598715 0.18412763 0.042817507
0000a0 a9 ea f0 3e 47 d3 73 3e 87 46 18 3e a4 72 3c 3e
       0.47054031 0.23811065 0.14870654 0.18403107
0000b0 60 da d7 3e 43 f1 00 3f ea e2 a9 3e e1 12 bc 3e
       0.42158794 0.50368136 0.33180934 0.36733153
0000c0 97 03 b6 3e 99 c9 02 3e e1 0c 80 3e 44 f4 a1 3e
       0.35549614 0.12772216 0.25009826 0.31631672
0000d0 0f bd 48 3e ce fe 26 3e ad f4 7d 3e 26 02 b5 3d
       0.1960337 0.16308138 0.24800368 0.088383004
0000e0 26 32 0f 3f 32 ea 6a 3e ef cf d1 3d 0c 18 17 3f
       0.55935895 0.22940901 0.10244738 0.5902107
0000f0 4f 26 de 3e a2 ae 31 3d 34 43 ce 3e 25 60 12 3e
       0.43388602 0.043379433 0.40285647 0.14294489

encoder2.conv.3.weight f4 [64, 64, 3]
000000 14 38 1d ba d8 58 66 bd b7 9d 82 b8 2d cb 44 bd
       -0.0005997431 -0.05623707 -6.22826e-05 -0.048045326
000010 6d 1a 01 3d a0 5a 17 bd 3d d7 c1 3c ab 0f a2 bc
       0.031519342 -0.03695166 0.023662204 -0.019782862
000020 a3 e2 72 3d 1f 08 d3 bb d0 73 4f bd b1 ce 07 bc
       0.05929817 -0.006440177 -0.050647557 -0.008289025
000030 c3 db 04 3c 3a e0 61 bd b2 86 40 bd ed fe 91 bd
       0.008109036 -0.05514548 -0.047003455 -0.07128701
000040 93 1e f2 3c ef 2e 8d 3c 88 aa 4f 3d 2f 64 91 3d
       0.029555595 0.017234294 0.05069974 0.07099187
000050 8c 3d 02 3e a0 19 fb 3d c8 5d d9 3c a5 fc da bd
       0.12718791 0.12260747 0.026533976 -0.10692719
000060 5a f8 63 3d fb c4 7c 3c 7b f1 cd 3a 7c f0 8a 3b
       0.05565677 0.015427823 0.0015712226 0.0042400938
000070 01 40 31 bd fa ae 1f bc 0d 4f f0 3c 4b 5c e1 bc
       -0.04327393 -0.0097463075 0.02933457 -0.027509829
000080 ba 65 b9 3c f8 fb df 3c 6e d2 16 bd 4a 26 70 bd
       0.022631515 0.027341828 -0.036821775 -0.058630265
000090 87 1a 82 3d 1b 86 dd 3d 9d e0 15 3d be c4 c7 bc
       0.06352716 0.10816594 0.03659116 -0.024385806
0000a0 3e 12 31 bd 32 14 2b be 36 dd 8b 3d 94 eb 26 bc
       -0.043230288 -0.16706923 0.06829302 -0.010188002
0000b0 63 af da 3d 23 74 94 bc 1b fb 20 bd 14 a7 0f 3d
       0.106779836 -0.018121785 -0.039301973 0.035071447
0000c0 e0 fa b4 3b 6e aa 1e bd 22 4d 64 bd 84 6e 37 bc
       0.0055230707 -0.038736753 -0.055737622 -0.011195783
0000d0 70 92 3d bd d3 2b 97 3d ca da 41 3d e9 86 05 3d
       -0.04628223 0.07381406 0.047327794 0.032599363
0000e0 ce 6c 8d 3c 7c 6c 68 bd 43 7a 07 bc b9 45 48 3d
       0.017263796 -0.056744084 -0.008268896 0.048894618
0000f0 e6 fa 18 bd 7a 8f 53 bb b3 2c b0 bd e1 d9 e2 3c
       -0.03734865 -0.0032281564 -0.08602276 0.027691783
000100 41 cf 88 bd d1 2e 88 3d e2 4c 85 3d 16 7e b6 bb
       -0.066801555 0.066495545 0.06508805 -0.00556923
000110 e5 2d ab b9 3f 31 b4 bb c5 57 3b bd 7b 11 04 3d
       -0.00032649856 -0.0054990347 -0.045738 0.032243233
000120 40 56 b5 bd 87 5a 39 bd 0d a7 f7 3c cf fd 2b bb
       -0.088543415 -0.04525235 0.030231023 -0.002624381
000130 ea 01 87 3b 5a 06 80 bc bf e3 27 bd 2f d1 fe 3c
       0.004120101 -0.015628029 -0.04098868 0.031105606
000140 b2 75 9c 3d ed c7 47 3c 67 8d 04 bd f2 62 85 bd
       0.07639636 0.012193662 -0.032361414 -0.06513013
000150 1a ac 53 bd a8 8f 51 bd 6b 7d 8c 3d 4c 66 ca bb
       -0.0516778 -0.051162392 0.06859859 -0.0061767455
000160 0a 20 e5 3d de 23 a1 3d 64 fc 4a bd b6 3f 23 3d
       0.111877516 0.07868169 -0.049557105 0.03985568
000170 3d d5 a2 3c 41 f2 2d 3d 86 89 48 3b d3 af 94 3d
       0.01987707 0.04246736 0.0030599548 0.07260098
000180 da fc a8 3c b2 bd 08 bd 77 3e 87 3d fe 9d 61 3c
       0.020628382 -0.033384033 0.06603711 0.013770578
000190 ed 19 34 3d 34 fc 98 3d a9 90 94 bd 5f 30 63 3c
       0.043970037 0.07469979 -0.07254154 0.013866513
0001a0 d0 c5 e3 3b 97 d4 a7 bd e0 82 a2 3d 2e ad bf bc
       0.0069510713 -0.08194845 0.07935119 -0.023398008
0001b0 7b 84 ec bc d3 19 b3 3d f2 f1 4c ba bf 15 10 ba
       -0.028871765 0.0874516 -0.0007818035 -0.00054964045
0001c0 38 30 dc 3c 73 14 c0 bd c7 db 8c 3c 41 11 e2 3b
       0.026878461 -0.093789004 0.017194642 0.0068990295
0001d0 d6 bb 99 bd 79 90 da 3d 81 dc 2d bd 6e 64 8a 3d
       -0.0750653 0.10672087 -0.042446617 0.06757437
0001e0 b2 ba 2a 3d 21 1a 15 3c e7 b3 a2 3d 16 a5 b6 3c
       0.041681953 0.009100468 0.0794447 0.022295516
0001f0 39 12 a0 bb 88 6f 89 bb 10 ce 1c 3d 0d ad cc bc
       -0.004884985 -0.0041942038 0.038282454 -0.02498486
000200 57 79 9d 3d 6d 02 7b bd fe be 78 3c 8f 27 43 3d
       0.07689159 -0.06128161 0.015182255 0.047645148
000210 6f 9a ee 3c 2e 06 5d 3d b9 54 18 bc 6e 9c 1c 3d
       0.029126374 0.05396097 -0.009297543 0.03823512
000220 fa c3 8c bd 9f 96 07 bd 00 cb 00 bd d9 41 23 bd
       -0.06873317 -0.033102628 -0.031443596 -0.03985772
000230 a2 51 20 bc 4c a0 76 bd 80 90 9e 3d d2 ba 56 3b
       -0.009785088 -0.060211465 0.07742405 0.0032765162
000240 ec 36 80 3b af 71 fc b9 b6 f0 90 3d 1c b0 af bc
       0.003912797 -0.00048149886 0.07077162 -0.02144628
000250 df a8 9c 3d 23 68 38 bd 6e 1e dc bd 7a a4 a8 bd
       0.07649397 -0.045021188 -0.107479915 -0.082344964
000260 33 ca c9 3d 2e f6 e3 3c c5 04 25 3c 79 f2 96 bd
       0.098530196 0.027827349 0.010071938 -0.07370467
000270 7a 61 2c 3d 5b 73 4d 3d c6 c8 3c bc 13 24 11 3d
       0.04208515 0.05015884 -0.0115224775 0.035434794
000280 f2 25 15 3d b5 95 c1 bb 36 8b cc bc 64 51 01 bd
       0.03641314 -0.005907739 -0.024968725 -0.03157176
000290 64 9c 08 bd bc 5b a5 bd e3 32 92 bd 1a fe 1f 3c
       -0.03335227 -0.080741376 -0.07138612 0.009765172
0002a0 65 f6 0a 3d 0a 47 f0 ba 6e 99 49 3b e8 c8 b5 3b
       0.033926386 -0.0018331718 0.0030761617 0.0055476315
0002b0 6b 39 dd 3d 81 8e 4c 3d 07 f8 ca bd 78 67 ae 3c
       0.10801967 0.04994059 -0.09910589 0.021289572
0002c0 3b 8b 2c 3d e6 b5 1d bd 07 9d ae bd 79 47 6e bc
       0.042124968 -0.03850355 -0.08526044 -0.014543408
0002d0 c0 b9 6e bd 91 69 da bc 68 47 93 bc 7a 1d db 3d
       -0.058282614 -0.026661666 -0.017978385 0.106989816
0002e0 2f d3 6a bc d9 8c a6 3d 4a a5 0b bc fd c1 86 3c
       -0.014332577 0.08132333 -0.008523295 0.016449923
0002f0 77 23 36 bd d4 67 0e be 9c fa 9c 3c c2 c5 18 3d
       -0.044467416 -0.13906795 0.019162469 0.03729797
000300 11 58 bd bd 58 26 aa bd d0 38 a1 bc 3c 4f 98 3d
       -0.09245313 -0.08308095 -0.01968041 0.07436988
000310 d7 6a 4f 3d df e7 e2 bc 96 bc d9 3c 1a 90 eb bc
       0.050639 -0.027698455 0.026579183 -0.028755236
000320 19 8b a2 bb 1c 8a 72 bd 4e 03 d0 3d 1f a8 01 bd
       -0.0049604294 -0.059213743 0.1015688 -0.031654473
000330 3b a2 30 bd 53 72 aa bb e6 c2 48 bd 42 71 81 3c
       -0.043123465 -0.005201617 -0.049013995 0.015801076
000340 69 07 7d 3d 75 79 36 3d 8b ea d7 3d a2 ac 85 3d
       0.061774645 0.044549424 0.105427824 0.06527068
000350 66 aa 1b bd bd ab 71 bc 32 ff 87 3a 50 c0 22 3a
       -0.0380043 -0.014750418 0.0010375737 0.00062084664
000360 52 29 68 bd 5b 20 63 bc 48 0d fb 3c 53 0a 48 3d
       -0.05668003 -0.013862695 0.030645981 0.04883797
000370 2c 0b 0a 3d 79 60 bf 3d 76 a0 20 3d a0 81 82 3c
       0.03370206 0.093445726 0.039215527 0.01593095
000380 77 a1 89 3d 69 6c ee 3d 32 ab 00 3c 0a 0e 9f 3d
       0.0672025 0.11641771 0.007853316 0.077663496
000390 dc 32 9e bd af d1 eb bd 66 0d 00 be 48 7f 80 bc
       -0.077245444 -0.11514603 -0.12505111 -0.015685692
0003a0 8a e4 94 3c 7d ac e1 bd 62 9e ea 3b 47 ff 30 bc
       0.018175382 -0.11019228 0.007159994 -0.01080305
0003b0 86 5b a9 3d 2c 8e 70 bd 57 ad 2b 3d a7 7d 26 3d
       0.0826941 -0.058729336 0.041913357 0.040647175
0003c0 28 fe 9b bd f2 23 13 3d 5a 5b a1 bc 74 8b b1 bd
       -0.07616836 0.035922952 -0.01969688 -0.08669177
0003d0 91 e3 ea bd 16 f8 1d bd bd c7 65 bc 51 a6 01 be
       -0.11469186 -0.03856667 -0.014024672 -0.12661101
0003e0 0a 43 4e bc d2 42 72 bc b3 fd 2e bd 4b ce 55 3c
       -0.012589226 -0.014786439 -0.042722415 0.013049672
0003f0 23 46 dc 3c 5f 6c 63 3b a1 9a 9c bd b4 72 90 3d
       0.026888913 0.0034702045 -0.076466806 0.07053128

encoder2.conv.3.bias f4 [64]
000000 43 5e 17 bd c7 af 51 3c 3f c2 5d bd 29 22 8b 3d
       -0.03695513 0.012798256 -0.054140326 0.06793625
000010 09 1a d8 3c e8 66 1c bc ba 4e e3 bc 76 9b 62 3d
       0.026379602 -0.009546019 -0.0277475 0.05532404
000020 32 ec 47 bd 9c 6e 91 bd fc 6e 91 bd 5e be a9 bb
       -0.048809238 -0.07101175 -0.07101247 -0.0051801642
000030 19 32 23 bd a5 de 8e 3c e0 10 29 3d aa 00 8c 3d
       -0.0398427 0.01744015 0.04127586 0.06836064
000040 33 f7 1b 3d f0 63 a4 3c 6c 91 c4 bc b2 fa a1 bd
       0.038077544 0.020067185 -0.023995124 -0.079091445
000050 d7 be b9 3d e8 05 d8 39 a8 06 06 3d 81 cc 91 bc
       0.09069603 0.0004120313 0.03272119 -0.01779771
000060 4b a9 1f bc 0a d1 ef 3c 2c a9 a2 bc e5 c6 7b 3d
       -0.009744952 0.029274482 -0.019856058 0.061468977
000070 48 79 08 bd 54 19 ae 3c c3 13 ae 3c 45 8e 0d bd
       -0.033318788 0.021252312 0.021249657 -0.034559507
000080 84 95 14 bd 9a da 7d 3c ca 3c 52 3d a8 16 22 bc
       -0.0362754 0.015494013 0.051327504 -0.009893097
000090 fb 1d 85 3d 7e 5d b6 3c fd c3 67 bc f6 ba 9a 3d
       0.06499859 0.022261377 -0.014145848 0.07555191
0000a0 b2 50 84 3d a5 d6 13 3d d1 dd b3 3b a9 53 4b bc
       0.06460704 0.036093373 0.005489089 -0.012410083
0000b0 06 cb ff bc 6a a5 93 3d 52 72 de b9 14 63 28 3d
       -0.031224739 0.072092846 -0.00042428315 0.041110113
0000c0 e6 fc fe bc 53 e3 71 3d b4 9f 3e 3d b9 3b d9 bc
       -0.03112645 0.059054684 0.046539024 -0.026517736
0000d0 3a cd 4f bd 95 08 f9 3c 5d 82 99 bc 31 01 7f 3d
       -0.05073283 0.0303996 -0.01873892 0.062256996
0000e0 32 a4 62 bc c2 95 bb bc b2 29 1b bd 69 f6 a8 3b
       -0.0138330925 -0.022898559 -0.03788156 0.0051563275
0000f0 72 de 6f 3d 00 24 bd 3c 12 ab 61 3d a4 e4 1e 3d
       0.05856175 0.023088455 0.055094786 0.038792267

encoder2.conv.4.weight f4 [64]
000000 dd 97 66 3f 0d 8f 7b 3f 8a 9d 78 3f ea b0 69 3f
       0.90075475 0.98265153 0.97115386 0.91285574
000010 0e c0 81 3f 3d f7 81 3f 97 77 6f 3f 46 0f 7a 3f
       1.0136735 1.0153576 0.93541855 0.97679555
000020 67 39 89 3f 4a d2 75 3f 23 69 7d 3f dd e2 7d 3f
       1.0720643 0.96024 0.9898855 0.9917429
000030 6a 21 80 3f fa 2c 7c 3f 38 05 80 3f 77 e4 73 3f
       1.0010197 0.9850613 1.0001593 0.95270485
000040 85 79 83 3f 0b 93 7d 3f 07 3b 6e 3f 01 b3 80 3f
       1.027146 0.99052495 0.9305882 1.0054628
000050 1b 72 87 3f b8 a4 82 3f 03 ac 7e 3f fa 19 85 3f
       1.0581697 1.0206518 0.9948122 1.0398552
000060 5e 0d 80 3f f5 65 6e 3f 6d df 83 3f 21 91 85 3f
       1.0004079 0.93124324 1.0302559 1.0434915
000070 10 b0 7a 3f 94 8a 78 3f f4 50 84 3f b2 72 7c 3f
       0.979249 0.97086453 1.0337205 0.9861251
000080 ec 34 78 3f 4a 74 87 3f 51 38 83 3f f4 fc 81 3f
       0.9695575 1.0582364 1.0251561 1.015532
000090 d2 6d 81 3f 04 04 7c 3f eb 31 7b 3f aa 78 80 3f
       1.011164 0.9844363 0.98123044 1.0036824
0000a0 33 5b 80 3f 2d d1 7c 3f 3c b3 83 3f e8 c6 87 3f
       1.0027832 0.98756677 1.0289073 1.0607576
0000b0 1e 7a 7c 3f 38 dd 85 3f 31 66 6e 3f 1c ee 7a 3f
       0.98623836 1.0458136 0.9312468 0.98019576
0000c0 b1 79 79 3f f0 19 63 3f c2 b7 81 3f 44 70 83 3f
       0.9745131 0.8871145 1.0134203 1.0268636
0000d0 df 0e 7f 3f 86 16 88 3f 56 e9 7a 3f 76 3a 7f 3f
       0.99632066 1.0631874 0.9801229 0.9969858
0000e0 90 53 80 3f 1c 1b 79 3f 6e 9b 72 3f 9e c8 80 3f
       1.0025501 0.9730699 0.94768417 1.0061224
0000f0 47 60 80 3f 0b 9c 71 3f 90 99 7f 3f b5 cd 88 3f
       1.0029382 0.9437873 0.9984369 1.0687777

encoder2.conv.4.bias f4 [64]
000000 a7 11 4b bc 95 6a a6 3b 70 f2 d4 3c 3d 9c 34 3d
       -0.012394345 0.0050786235 0.02599451 0.044094313
000010 ba 38 3d 3d ad 39 89 bb 27 8c 0c bd 8d a6 0c 3d
       0.046196677 -0.0041877837 -0.034313347 0.034338523
000020 8a f9 10 3d c0 17 5a bd 76 58 88 bc 50 77 55 bc
       0.03539423 -0.053245306 -0.016643744 -0.013028935
000030 2c 19 9c 3c 9b 2d 23 bb bf e2 d5 39 04 9f 44 3c
       0.019054972 -0.002489901 0.00040795465 0.012000803
000040 59 0e 83 bb 65 3c 35 3c 9e f7 8a bc df 73 c4 3c
       -0.003999513 0.011061762 -0.016963776 0.023981033
000050 b4 47 5f 3d e3 2a a2 3b 20 cd 83 bc 99 61 43 3c
       0.05451174 0.00494896 -0.016089022 0.011925125
000060 b6 0e 4f bd 5a 5e 30 bd e0 67 1d 3d 6d b7 8e 3c
       -0.05055114 -0.04305873 0.03842914 0.017421449
000070 79 ec 07 3c c8 9d 7a bd 5b b7 a2 bb 03 96 17 3c
       0.008296126 -0.06118563 -0.0049657053 0.009252074
000080 0f 5f 6f 3a 33 79 6b 3d c2 4e a3 bb 8e dc ea 3c
       0.00091312913 0.05748863 -0.004983754 0.028669622
000090 9b 92 bc 3c 3c e3 17 3c 5e ac 68 bb f2 d5 de bb
       0.023019126 0.0092704855 -0.003550313 -0.0068004066
0000a0 6e c8 06 bd 98 2d c9 bd 17 c7 f2 3b 7f 52 41 3a
       -0.03290599 -0.098231494 0.0074089873 0.00073746586
0000b0 8d c2 9b 3c 58 a3 0e 3c ad e9 e6 bc 13 aa ed bc
       0.019013667 0.008705936 -0.028187597 -0.029011762
0000c0 5a a9 f3 3c e8 36 de 3c 99 16 8e ba 0e 52 14 3d
       0.029743839 0.02712579 -0.0010840475 0.036211066
0000d0 da ba 42 3c a0 54 71 bc 21 5e fc bc d6 29 98 bc
       0.011885369 -0.014729649 -0.030806603 -0.018574636
0000e0 7a af 4b 3b 21 e5 b6 bc 54 de 3a bd b8 39 b1 bb
       0.0031079934 -0.022326054 -0.045622185 -0.005408492
0000f0 6d 91 1d bd ed cd 66 3a a0 42 ea 3c 73 85 34 3c
       -0.038468767 0.0008804489 0.028596222 0.011018145

encoder2.conv.4.running_mean f4 [64]
000000 61 44 b0 3d 9d 3f 91 be 6c 8d 1b bf 8b a4 41 3e
       0.08606792 -0.28368846 -0.6076267 0.18910424
000010 ed 66 a2 be 6f e2 aa be b9 57 93 be 6c bd d8 bc
       -0.3171915 -0.3337588 -0.28777865 -0.02645751
000020 1b 21 09 3e f5 fa 6a 3f f8 a0 0f bf e3 05 a5 be
       0.13391535 0.9178918 -0.56104994 -0.32231054
000030 b8 8b d9 be f4 dc ba bd 5d 5d 2a bc d5 5a c6 be
       -0.4248941 -0.09124175 -0.010398236 -0.38741174
000040 dd 54 0a be 13 bf 5f be 57 20 cd be a6 97 d9 b9
       -0.13508935 -0.21850233 -0.40063736 -0.00041502452
000050 6d 85 ff bd 35 8b 1a be 21 21 b7 bd bb 0d 26 be
       -0.12476621 -0.15092166 -0.08941866 -0.16216175
000060 b3 c4 74 bd ed 7f d1 3e fd 3f ab be 45 3c b2 3d
       -0.0597579 0.40917912 -0.33447257 0.08702902
000070 69 de ae be f0 a8 57 3f f6 28 ec be eb 50 98 be
       -0.3415406 0.84242153 -0.46125 -0.29749236
000080 f3 c5 30 bf f9 72 a0 be 00 69 d4 be 13 a6 b9 3d
       -0.69052047 -0.31337717 -0.4148636 0.09064879
000090 35 91 1a 3b ca 52 4c bf da 54 12 be eb d2 27 be
       0.0023585085 -0.79813826 -0.14290181 -0.16389053
0000a0 2d 53 10 bf e0 7a 20 3f 98 b3 89 be 0c 79 c9 be
       -0.56376916 0.6268749 -0.26894832 -0.39350164
0000b0 4c 20 8c bd da b7 a6 be 1b dc 25 3f 27 86 8d be
       -0.06842098 -0.32562143 0.6478898 -0.27641413
0000c0 f4 55 5b be 22 18 0a 3e 1d 12 a0 be 90 de 1f bd
       -0.21419507 0.13485768 -0.3126382 -0.03903061
0000d0 78 6f a6 be 2f 60 14 be 0d ee a3 be b8 cd aa be
       -0.3250692 -0.14489816 -0.32017556 -0.33360076
0000e0 59 d2 81 be b7 ee e3 be b9 29 88 3e 4a 27 7f 3e
       -0.25355795 -0.44518062 0.26594332 0.24917331
0000f0 bb 7d fb bd 3b 82 a4 be 14 ce 95 3d 19 34 9e be
       -0.122798406 -0.32130608 0.07314697 -0.30899122
