best_unet_model.pt (torch, 194319 bytes, 65 tensors)

encoder1.0.weight f4 [16, 1, 3]
-0.47468325 0.12643582 -0.44982085 -0.25054315 -0.41230315 -0.013507486 -0.52398866 0.12264208
0.41343263 0.084880605 -0.23091292 0.22508568 -0.11942608 -0.34919897 -0.67669857 -0.48144162
0.008781055 0.10404223 0.007856885 -0.26684958 0.32312012 0.42031574 -0.2135593 -0.13188548
0.35130757 0.43132973 0.23287638 -0.07018105 -0.393071 -0.1212134 0.063647695 0.1030213
-0.14960414 0.42225024 -0.28195402 -0.15127166 0.4149626 0.09833965 -0.012396188 -0.19646905
-0.24832967 0.3912336 0.38190934 0.20215702 -0.302421 -0.51625276 0.46418414 0.47584006
00000000: af09 f3be 6478 013e eb4e e6be 3147 80be
00000010: 6619 d3be 814e 5dbc 1f24 06bf c52b fb3d
00000020: 71ad d33e e2d5 ad3d 7074 6cbe dc7c 663e
00000030: a995 f4bd 35ca b2be 1e3c 2dbf 847f f6be
00000040: 6ade 0f3c 1814 d53d 2aba 003c 82a0 88be
00000050: 0070 a53e a033 d73e 4aaf 5abe fd0c 07be
00000060: 96de b33e 40d7 dc3e 2577 6e3e 15bb 8fbd
00000070: 9a40 c9be bb3e f8bd b959 823d d5fc d23d
00000080: d431 19be 2f31 d83e 475c 90be f5e6 1abe
00000090: fa75 d43e 4c66 c93d 6219 4bbc 2f2f 49be
000000a0: 224a 7ebe c54f c83e 9f89 c33e 4002 4f3e
000000b0: edd6 9abe 2429 04bf 8ba9 ed3e 4fa1 f33e

encoder1.0.bias f4 [16]
-0.33561358 -0.19797081 0.16686226 -0.039190654 -0.45750618 0.37367025 0.07638787 0.5120301
0.22986847 0.44650897 -0.53433925 0.55980724 -0.29948455 -0.5360201 0.5325955 -0.37598118
00000000: 8bd5 abbe dcb8 4abe f1dd 2a3e 6186 20bd
00000010: 403e eabe b551 bf3e 3e71 9c3d 6814 033f
00000020: a462 6b3e d39c e43e 75ca 08bf 874f 0f3f
00000030: 0a56 99be 9d38 09bf 2e58 083f 9b80 c0be

encoder1.1.weight f4 [16]
0.97108585 0.9038732 1.2373484 0.95495576 0.9750245 0.9849119 0.96576047 0.971851
0.9426606 0.9635926 1.0116237 1.0963936 0.9389945 1.0794903 0.91830266 0.93233657
00000000: 1599 783f 3c64 673f 6f61 9e3f fb77 743f
00000010: 359b 793f 3023 7c3f 143c 773f 3acb 783f
00000020: 3552 713f 01ae 763f e37c 813f a056 8c3f
00000030: f261 703f bd2c 8a3f e215 6b3f 9cad 6e3f

encoder1.1.bias f4 [16]
-0.017469864 -0.0645438 0.08278582 0.066985995 -0.044795327 -0.009212852 0.08060689 0.011168702
0.05088401 -0.060057875 -0.0847906 -0.06861347 0.06336982 0.105960384 -0.038064327 0.08657031
00000000: f61c 8fbc 8a2f 84bd 9d8b a93d f42f 893d
00000010: 4e7b 37bd 81f1 16bc 3a15 a53d eefc 363c
00000020: c06b 503d 3fff 75bd b2a6 adbd 3885 8cbd
00000030: 09c8 813d c201 d93d 57e9 1bbd c64b b13d

encoder1.1.running_mean f4 [16]
31716.283 26790.262 -633.40875 -3166.0505 45579.03 14741.127 -2534.8665 -3187.283
-40348.793 23198.066 -712.79816 293.23965 -19870.3 2197.7253 -11560.076 -16810.316
00000000: 91c8 f746 864c d146 295a 1ec4 cfe0 45c5
00000010: 080b 3247 8254 6646 dd6d 1ec5 8734 47c5
00000020: cb9c 1dc7 223c b546 1533 32c4 ad9e 9243
00000030: 9a3c 9bc6 9b5b 0945 4ea0 34c6 a254 83c6

encoder1.1.running_var f4 [16]
1.4827071e+09 1.0767469e+09 4.4732972e+07 1.4814986e+07 3.107353e+09 3.401234e+08 1.3883859e+07 2.9755222e+07
2.4290396e+09 8.068544e+08 3.1221725e+06 1.6788344e+07 5.947294e+08 2.5147754e+07 2.2431322e+08 4.7628723e+08
00000000: a1c0 b04e b55b 804e 8ba4 2a4c 0a0f 624b
00000010: 7236 394f f82e a24d d3d9 534b ab03 e34b
00000020: 34c8 104f 7c5e 404e f28f 3e4a bc15 804b
00000030: 67cb 0d4e b5dc bf4b f8eb 554d 881c e34d

encoder1.3.weight f4 [16, 16, 3]
-0.12968324 0.04603469 -0.02814232 0.014650538 0.015651375 -0.014685708 -0.15580581 0.088241674
0.22289181 0.042846553 0.123854324 -0.14508614 -0.028496914 0.08084236 -0.0748647 0.12401493
0.09062853 -0.09230781 -0.087179504 -0.086447746 -0.095562056 0.123923466 -0.036671486 -0.14579545
0.027158877 0.05499316 -0.02577777 -0.010740227 -0.120610304 0.061951 -0.048780125 0.055491034
-0.05862272 0.034774687 0.022828113 -0.104631156 -0.047562532 -0.00070133456 0.011645457 -0.12227744
0.012443435 0.17418568 -0.027687065 0.036352765 0.0940394 -0.09714584 0.11161582 0.010828192
-0.059240554 0.099363245 -0.09895865 -0.08771468 0.0695881 -0.06370387 0.10279482 0.043463573
-0.01149578 -0.11508745 0.011997766 -0.0136344405 -0.03897176 -0.067085505 0.013265916 0.08439583
-0.085236795 0.037297636 0.15106444 0.03835921 0.10215134 -0.03381574 0.05624925 -0.014379466
0.04211303 0.11338849 0.17716469 0.11874589 0.103291735 -0.06620957 0.03664354 0.07500978
0.105476886 -0.06960906 0.022579065 0.056007575 -0.019873036 0.043881696 0.021284398 0.039661404
-0.05953126 -0.04662727 0.14705622 -0.08038515 0.0530959 0.18837994 0.115919486 0.030322943
0.08425842 -0.028233517 -0.09719593 -0.03872406 -0.011138454 -0.14810841 -0.0015996764 0.081376895
0.1148297 0.1254719 0.096253216 0.00846601 -0.05464139 -0.14751473 -0.1488926 0.069368884
-0.09296663 -0.119395204 0.097526535 -0.047983997 -0.03874098 0.060078107 -0.1357403 -0.17091659
-0.0982481 -0.07585188 -0.018462826 -0.0071413578 -0.13788879 -0.045076616 -0.0008998286 -0.03723226
-0.10224976 0.007218751 -0.08267322 -0.05710832 -0.08931539 0.06649498 0.009806799 0.03847774
-0.08989589 -0.036572687 -0.0685569 0.06626485 0.056147445 -0.0033331134 -0.07159718 0.12987722
-0.06588139 -0.09796782 0.082656324 0.14733578 -0.10272879 -0.0348407 0.13535929 0.055599812
0.021577748 -0.073271215 0.16184808 -0.028599441 -0.0039117974 -0.042691495 0.1278927 -0.07710653
0.049524356 0.11314103 0.12002735 0.17985034 0.0049933805 -0.002697193 -0.13590594 -0.0990176
-0.08016946 0.04566587 0.10792356 -0.020286037 0.055531397 0.09931443 0.017753724 -0.021295449
0.11698845 -0.08863772 0.06972321 -0.13160844 0.12213442 -0.038650766 0.15819342 -0.14529172
-0.011778319 -0.1496695 -0.11817133 0.11612714 -0.048591204 0.057074364 0.073450804 0.063020386
-0.08179082 -0.0019149532 0.018994799 0.120461166 -0.003542457 0.09148842 0.063698724 0.037836466
-0.024255238 -0.04115401 -0.089671075 -0.016241692 -0.11725227 0.04928077 0.09271171 0.15856855
-0.14735636 -0.120393254 0.024099281 -0.059021693 0.016539054 -0.13189393 0.12478375 0.06269839
-0.16098525 -0.07431113 0.08959508 0.032724272 0.07856292 0.046733066 -0.12338654 0.06937616
-0.0683888 -0.1863452 0.17727679 0.123226956 -0.06076827 0.038744867 -0.093255326 0.2259646
-0.020876521 -0.19922036 0.016597047 0.11294787 0.11615964 -0.028824618 -0.12273964 0.060022157
-0.013695776 -0.13390896 -0.0795635 0.10810565 -0.071990654 0.12825471 -0.14081599 0.04474295
-0.07084351 0.16283247 0.12855482 -0.13685091 0.051842526 -0.005506053 -0.066011176 0.08960785
00000000: afcb 04be df8e 3c3d b98a e6bc cf08 703c
00000010: 5037 803c 539c 70bc 8f8b 1fbe 0db8 b43d
00000020: c03d 643e de7f 2f3d 56a7 fd3d 7691 14be
00000030: 5c72 e9bc ae90 a53d aa52 99bd 8afb fd3d
00000040: 739b b93d e10b bdbd 2b8b b2bd 840b b1bd
00000050: 0ab6 c3bd 96cb fd3d d734 16bd 674b 15be
00000060: 4b7c de3c 8240 613d e72b d3bc c7f7 2fbc
00000070: 8902 f7bd 55c0 7d3d abcd 47bd 914a 633d
00000080: 611e 70bd e76f 0e3d 0602 bb3c dc48 d6bd
00000090: eed0 42bd c4d9 37ba 96cc 3e3c 986c fabd
000000a0: 8ddf 4b3c bb5d 323e fccf e2bc a3e6 143d
000000b0: bb97 c03d 66f4 c6bd d696 e43d bb68 313c
000000c0: 39a6 72bd f57e cb3d d5aa cabd c1a3 b3bd
000000d0: 3584 8e3d 2d77 82bd 1786 d23d dc06 323d
000000e0: cc58 3cbc f8b2 ebbd 4792 443c fd62 5fbc
000000f0: daa0 1fbd 2064 89bd 4959 593c b9d7 ac3d
00000100: a190 aebd 68c5 183d a3b0 1a3e 8c1e 1d3d
00000110: b934 d13d 6082 0abd 9d65 663d da97 6bbc
00000120: b67e 2c3d 3a38 e83d a96a 353e 0c31 f33d
00000130: 9e8a d33d e298 87bd 8917 163d ba9e 993d
00000140: 4404 d83d 328f 8ebd bbf7 b83c 3368 653d
00000150: c7cc a2bc 4bbd 333d 9e5c ae3c ff73 223d
00000160: 0dd7 73bd 3cfc 3ebd e895 163e f8a0 a4bd
00000170: 167b 593d ace6 403e 3267 ed3d d267 f83c
00000180: ae8f ac3d fa49 e7bc a90e c7bd 1f9d 1ebd
00000190: 107e 36bc bba9 17be 3cac d1ba eea8 a63d
000001a0: d52b eb3d b57b 003e 6820 c53d 05b5 0a3c
000001b0: a6cf 5fbd 1a0e 17be 4d77 18be 4611 8e3d
000001c0: 4a65 bebd 7985 f4bd febb c73d de8a 44bd
000001d0: ddae 1ebd 7614 763d 81ff 0abe c204 2fbe
000001e0: 4d36 c9bd 3b58 9bbd 5a3f 97bc 0d02 eabb
000001f0: b832 0dbe 42a2 38bd 7ae2 6bba db80 18bd
00000200: 5268 d1bd 468b ec3b 9450 a9bd 6aea 69bd
00000210: fdea b6bd 852e 883d b2ac 203c d69a 1d3d
00000220: 561b b8bd 3ecd 15bd 8f67 8cbd deb5 873d
00000230: ddfa 653d 5d70 5abb 8ba1 92bd 89fe 043e
00000240: d2ec 86bd 5aa3 c8bd b847 a93d 31df 163e
00000250: 7963 d2bd 1fb5 0ebd a09b 0a3e a1bc 633d
00000260: d1c3 b03c 380f 96bd 81bb 253e 6049 eabc
00000270: 892e 80bb 47dd 2ebd 4ef6 023e 07ea 9dbd
00000280: 0dda 4a3d 7cb6 e73d e6d0 f53d b02a 383e
00000290: 839f a33b 64c3 30bb ed2a 0bbe bdc9 cabd
000002a0: e32f a4bd 230c 3b3d 0707 dd3d e72e a6bc
000002b0: e474 633d 5d65 cb3d 4270 913c cb73 aebc
000002c0: a497 ef3d b187 b5bd 0bcb 8e3d 5dc4 06be
000002d0: 9c21 fa3d 4450 1ebd 75fd 213e 5ac7 14be
000002e0: daf9 40bc f642 19be cf03 f2bd 11d4 ed3d
000002f0: 9207 47bd cfc6 693d 606d 963d d510 813d
00000300: f281 a7bd 2bff faba fb9a 9b3c 58b4 f63d
00000310: 9128 68bb 485e bb3d 7a74 823d 69fa 1a3d
00000320: ecb2 c6bc 1b91 28bd 78a5 b7bd 4c0d 85bc
00000330: f521 f0bd a2da 493d a3df bd3d cb5f 223e
00000340: 96e4 16be bd90 f6bd db6b c53c bbc0 71bd
00000350: e97c 873c 340f 07be 9f8e ff3d 0368 803d
00000360: 51d9 24be 6f30 98bd a07d b73d e309 063d
00000370: 99e5 a03d 2c6b 3f3d 15b2 fcbd 1715 8e3d
00000380: 6d0f 8cbd 47d1 3ebe 0c88 353e 6a5e fc3d
00000390: 26e8 78bd f0b2 1e3d a6fc bebd 4463 673e
000003a0: 3d05 abbc 6c00 4cbe 88f6 873c 3651 e73d
000003b0: 1be5 ed3d 9b21 ecbc ec5e fbbd cbd9 753d
000003c0: 4064 60bc 6e1f 09be 30f2 a2bd 7f66 dd3d
000003d0: d66f 93bd 3455 033e 1132 10be 6244 373d
000003e0: 6716 91bd 8ebd 263e e0a3 033e a522 0cbe
000003f0: d458 543d 1f6c b4bb de30 87bd 5284 b73d

encoder1.3.bias f4 [16]
0.01649803 0.11506355 -0.13440728 0.14624014 -0.12515876 -0.030004485 -0.036654722 0.1246028
-0.09678334 -0.1098596 -0.11364651 -0.06998853 0.083759226 0.12462262 -0.011746783 0.05483075
00000000: e026 873c 70a6 eb3d 10a2 09be fabf 153e
00000010: 9e29 00be f7cb f5bc 4323 16bd c12f ff3d
00000020: 5836 c6bd 12fe e0bd 80bf e8bd 2556 8fbd
00000030: f589 ab3d 253a ff3d 9475 40bc 3596 603d

encoder1.4.weight f4 [16]
1.0222479 0.9381427 0.9114743 0.9308097 0.94948226 0.9642826 0.94101256 0.95426345
0.9023745 0.9634786 0.95862883 1.0703746 0.97978866 1.1106437 1.0134788 0.9689952
00000000: 05d9 823f 1f2a 703f 6156 693f 8b49 6e3f
00000010: 4511 733f 39db 763f 33e6 703f 9c4a 743f
00000020: 0402 673f 89a6 763f b368 753f 0902 893f
00000030: 6ed3 7a3f 9329 8e3f acb9 813f 1210 783f

encoder1.4.bias f4 [16]
0.1080089 -0.08690004 0.1367537 -0.056627985 0.12500587 -0.10092344 0.024617428 0.0039018656
-0.20452537 0.2034019 -0.018278208 0.26905462 0.11528539 0.11527959 0.010574106 0.020291869
00000000: c533 dd3d a6f8 b1bd 2909 0c3e bff2 67bd
00000010: 8a01 003e f3b0 cebd 7daa c93c 71b6 7f3b
00000020: 196f 51be 9648 503e 2ebc 95bc 87c1 893e
00000030: bf1a ec3d b517 ec3d 043f 2d3c 223b a63c

encoder1.4.running_mean f4 [16]
0.021659024 0.4189251 -0.3548577 0.3134235 -0.12553856 0.2366991 -0.029256843 -0.08161581
0.19261138 -0.11183328 0.04625471 -0.11936665 0.04891561 0.064536124 -0.18561755 0.30448642
00000000: 446e b13c 5a7d d63e e9af b5be 0c79 a03e
00000010: 2e8d 00be 4061 723e 0cac efbc 3126 a7bd
00000020: eb3b 453e d908 e5bd 9475 3d3d 8176 f4bd
00000030: bc5b 483d 842b 843d 8712 3ebe a5e5 9b3e

encoder1.4.running_var f4 [16]
0.039999712 0.59588486 0.5396866 0.30755475 0.048354104 0.45644918 0.044661105 0.5483266
0.51709723 0.14584932 0.42228782 0.03833651 0.41198835 0.337516 0.24716954 0.5596716
00000000: bdd6 233d e98b 183f e728 0a3f d177 9d3e
00000010: f40e 463d b5b3 e93e 90ee 363d 225f 0c3f
00000020: 7c60 043f 8659 153e 1c36 d83e bf06 1d3d
00000030: 23f0 d23e e6ce ac3e 031a 7d3e a346 0f3f

encoder2.0.weight f4 [32, 16, 3]
-0.018121984 0.06287193 0.09630745 0.11231805 0.048153177 0.09988992 0.09342506 -0.016394293
0.16019766 0.11299713 -0.020392371 -0.060359444 -0.121089466 0.12663516 -0.041120026 -0.09439934
0.10900211 0.1308988 -0.022286613 0.0060686707 -0.008964868 -0.12486722 -0.003941225 0.09945008
0.08461089 0.07307483 0.05020196 0.12389845 -0.010284202 -0.08652128 -0.10624107 0.031523313
-0.09716881 -0.06051261 -0.046222303 0.124126606 0.015915334 -0.15063971 0.1137572 0.10006331
-0.11570676 0.120037965 0.063186124 0.02100017 0.09351199 0.052936826 -0.05647395 0.076469235
-0.11264666 -0.115882955 0.114014395 0.051987354 0.09445274 -0.009152464 0.018755192 0.100662105
-0.033109844 0.013627261 -0.01789915 0.04481703 0.013947936 0.12310042 -0.14669669 -0.12620082
-0.011091513 0.017738098 -0.1002372 -0.15346225 0.043917812 -0.1250607 -0.07626969 -0.12413953
-0.018160524 -0.068574175 0.08690339 0.1069299 0.03796276 0.05634808 -0.03860456 0.10575971
-0.04947616 0.08755704 -0.1787038 0.017877063 0.12836795 0.005405093 0.101605274 0.11112869
-0.08532112 -0.1458269 -0.038008183 0.028076485 -0.07578701 0.034066472 -0.17397982 0.1006633
-0.13368076 0.06697021 -0.17910527 0.030272264 0.058647685 -0.15762563 -0.09422807 -0.022132047
-0.046414617 -0.054880157 -0.12440838 0.14297628 -0.01249343 -0.076237805 -0.04859097 -0.014066278
-0.029755808 -0.1282983 -0.019034142 0.09296988 -0.085942075 -0.043767143 0.014412654 -0.02339469
-0.023957904 0.038422484 0.018919718 0.0914297 -0.00867163 0.073949 0.104206815 0.02243329
-0.10668131 -0.080494106 -0.10177104 0.02282217 -0.14254947 0.10787114 -0.00140234 -0.20997423
-0.14612451 -0.0661096 -0.06845825 -0.036435746 0.02686594 -0.19707607 -0.1479292 -0.08344237
0.009734099 -0.1591203 0.06311548 -0.12778953 -0.09640006 0.016431756 -0.035492767 0.079537876
-0.16222781 0.095087156 0.07725874 0.014530906 -0.20239408 0.08381351 0.051126797 0.065531805
0.085255586 -0.057352077 0.027118018 -0.008458033 0.0013153765 0.04962303 -0.08981162 -0.041306064
-0.15585272 0.12726425 0.055053633 -0.1878378 0.102515265 -0.062065184 0.0023807376 0.014913181
-0.081684306 0.21517684 -0.21375665 -0.02065088 0.07326683 -0.12882063 0.11275075 0.12815483
-0.054364562 -0.1181058 -0.035801485 0.06063715 0.041095313 -0.03850792 -0.09300102 -0.10626741
0.0015492233 -0.17640035 0.10906699 0.037868775 -0.12095223 0.010505251 -0.008157256 0.03748576
-0.05536276 -0.009024537 0.11824175 -0.012053569 0.02091301 0.0073915194 -0.05920368 -0.07600822
0.035838116 -0.041610777 -0.02205142 -0.070017405 0.1425721 0.015162174 -0.021115685 -0.04843454
0.017619174 0.01718735 -0.12462216 -0.049171034 -0.020285811 0.112884514 -0.051812846 0.15865758
-0.09508513 0.007449484 -0.21148139 0.11291236 0.07325861 -0.1474185 0.21691675 0.007715657
-0.048374668 -0.043380663 0.0061678626 -0.012398292 -0.1138142 -0.15320756 0.062944606 -0.013656321
-0.0025532562 0.060567364 0.0044131516 -0.11341622 0.10479993 0.06998976 0.11915992 -0.103213504
0.064729095 0.04549587 -0.15894063 -0.11963645 0.13028389 0.03715411 -0.04436334 0.028613523
00000000: 8e74 94bc 00c3 803d d73c c53d 0107 e63d
00000010: 443c 453d 1693 cc3d a355 bf3d 534d 86bc
00000020: db0a 243e 0a6b e73d e70d a7bc 773b 77bd
00000030: c1fd f7bd a6ac 013e 796d 28bd 7154 c1bd
00000040: 803c df3d 560a 063e 6a92 b6bc b3db c63b
00000050: 62e1 12bc 63ba ffbd 6425 81bb 7cac cb3d
00000060: 7948 ad3d 42a8 953d 92a0 4d3d 78be fd3d
00000070: 127f 28bc 1232 b1bd eb94 d9bd 971e 013d
00000080: 7100 c7bd 12dc 77bd 9953 3dbd 1736 fe3d
00000090: e060 823c 4c41 1abe 89f9 e83d feed cc3d
000000a0: aaf7 ecbd 77d6 f53d ba67 813d 8c08 ac3c
000000b0: 3783 bf3d 49d4 583d 3b51 67bd e79b 9c3d
000000c0: 4bb3 e6bd 0b54 edbd 6180 e93d b1f0 543d
000000d0: 7070 c13d 37f4 15bc 7da4 993c ef27 ce3d
000000e0: 309e 07bd e044 5f3c 3da1 92bc 1092 373d
000000f0: e285 643c 131c fc3d a837 16be ca3a 01be
00000100: 2db9 35bc 7d4f 913c 2949 cdbd 3525 1dbe
00000110: 2ae3 333d ea0f 00be 4933 9cbd de3c febd
00000120: 61c5 94bc 9e70 8cbd 68fa b13d 10fe da3d
00000130: d77e 1b3d 3fcd 663d d11f 1ebd 8c98 d83d
00000140: 84a7 4abd 1b51 b33d 21fe 36be eb72 923c
00000150: e372 033e 351d b13b 6d16 d03d 7097 e33d
00000160: d7bc aebd a653 15be 78ae 1bbd a800 e63c
00000170: 3836 9bbd 4989 0b3d c427 32be 8f28 ce3d
00000180: 9ce3 08be ad27 893d 5f67 37be 8afd f73c
00000190: 8e38 703d 9d68 21be a5fa c0bd 444e b5bc
000001a0: 411d 3ebd 04ca 60bd d2c9 febd 6068 123e
000001b0: 3eb1 4cbc 9122 9cbd 5307 47bd 3f76 66bc
000001c0: 74c2 f3bc a160 03be 7ded 9bbc fe66 be3d
000001d0: 6602 b0bd 2d45 33bd 0d23 6c3c 39a6 bfbc
000001e0: 5e43 c4bc e560 1d3d 86fd 9a3c 7f3f bb3d
000001f0: 7413 0ebc 9372 973d 626a d53d 05c6 b73c
00000200: bb7b dabd 18da a4bd 566d d0bd 8ff5 ba3c
00000210: 7df8 11be 8beb dc3d b9ce b7ba 7c03 57be
00000220: aaa1 15be 7864 87bd d733 8cbd a63d 15bd
00000230: f615 dc3c 4fce 49be c17a 17be d5e3 aabd
00000240: c57b 1f3c 6ff0 22be b042 813d 42db 02be
00000250: 656d c5bd e49b 863c dd60 11bd c1e4 a23d
00000260: 0c1f 26be 0ebd c23d d539 9e3d 0a13 6e3c
00000270: 6540 4fbe 6ba6 ab3d 556a 513d 8a35 863d
00000280: 7b9a ae3d 03ea 6abd 9b26 de3c 9093 0abc
00000290: b668 ac3a 8541 4b3d 28ef b7bd 8c30 29bd
000002a0: db97 1fbe 8f51 023e eb7f 613d 8d58 40be
000002b0: 86f3 d13d 1038 7ebd 2606 1c3b 6a56 743c
000002c0: 1a4a a7bd 5157 5c3e 06e3 5abe 092c a9bc
000002d0: eb0c 963d 8ee9 03be dde9 e63d 053b 033e
000002e0: 60ad 5ebd 74e1 f1bd 94a4 12bd a95e 783d
000002f0: 8f53 283d 7bba 1dbd 5277 bebd baa2 d9bd
00000300: 4f0f cb3a 4ba2 34be 845e df3d 4a1c 1b3d
00000310: ceb5 f7bd 371e 2c3c 03a6 05bc ab8a 193d
00000320: 10c4 62bd a7db 13bc bb28 f23d 557c 45bc
00000330: c351 ab3c 8f34 f23b 8f7f 72bd 33aa 9bbd
00000340: fdca 123d 1070 2abd 2ea5 b4bc 4965 8fbd
00000350: 6cfe 113e c46a 783c cdfa acbc 4c63 46bd
00000360: 1656 903c 7ccc 8c3c e739 ffbd 9167 49bd
00000370: 6e2e a6bc ff2f e73d b539 54bd 2277 223e
00000380: febb c2bd cd1a f43b 948e 58be 983e e73d
00000390: 9c08 963d e0f4 16be 6d1f 5e3e 9fd3 fc3b
000003a0: 8424 46bd ecaf 31bd c81b ca3b 3522 4bbc
000003b0: 6b17 e9bd 71e2 1cbe 1ae9 803d c3be 5fbc
000003c0: 8854 27bb 7c15 783d 339c 903b c346 e8bd
000003d0: 58a1 d63d cb56 8f3d 1e0a f43d 9a61 d3bd
000003e0: b090 843d e159 3a3d 55c1 22be f503 f5bd
000003f0: 2469 053e e82e 183d 55b6 35bd e866 ea3c

encoder2.0.bias f4 [32]
-0.06601283 0.059195384 0.09723347 -0.009329784 0.019516455 0.1259045 -0.061809346 -0.09931723
0.01142527 -0.04636984 -0.057246357 -0.11125081 -0.13221584 -0.13701174 0.05166552 0.09115261
0.021385713 0.00088803616 0.09847078 0.062020816 -0.1308763 -0.05804785 0.0601777 -0.1190632
-0.09664166 0.04448645 0.07738359 0.061136417 0.1114751 -0.14653619 -0.14215063 0.09287259
00000000: bc31 87bd dc76 723d 5722 c73d f3db 18bc
00000010: f9e0 9f3c 1ced 003e cc2b 7dbd d566 cbbd
00000020: 0e31 3b3c 4dee 3dbd 287b 6abd 77d7 e3bd
00000030: 9763 07be ce4c 0cbe 399f 533d 38ae ba3d
00000040: 1731 af3c 19cb 683a 0cab c93d 8a09 7e3d
00000050: 7004 06be 95c3 6dbd e47c 763d 68d7 f3bd
00000060: 10ec c5bd 6c37 363d 4a7b 9e3d 2e6a 7a3d
00000070: 0f4d e43d 950d 16be ef8f 11be fc33 be3d

encoder2.1.weight f4 [32]
0.91206306 0.93076193 1.0175983 1.1019014 1.2173393 0.96493673 1.0411103 1.0112951
1.0331626 1.0887817 1.1157353 0.95893085 1.0371884 0.9256529 1.0742899 1.0447572
0.94546795 1.0508344 0.92759365 0.9374239 1.029055 0.9474821 1.0897713 1.0131025
0.934459 1.0278506 0.9087933 0.9060233 0.90752316 0.91706806 0.9159763 0.9410568
00000000: f77c 693f 6a46 6e3f a940 823f 1b0b 8d3f
00000010: c6d1 9b3f 1806 773f 1a43 853f 1e72 813f
00000020: ac3e 843f 335d 8b3f 6ad0 8e3f 7e7c 753f
00000030: 97c2 843f 97f7 6c3f 5582 893f 9bba 853f
00000040: 300a 723f be81 863f c776 6d3f 03fb 6f3f
00000050: 13b8 833f 308e 723f a07d 8b3f 58ad 813f
00000060: b438 6f3f 9c90 833f ada6 683f 25f1 673f
00000070: 7053 683f f9c4 6a3f 6c7d 6a3f 19e9 703f

encoder2.1.bias f4 [32]
-0.13148984 -0.062293906 0.08167184 0.19822077 0.1711264 -0.057664007 0.06219144 -0.012319417
0.043877024 0.08561598 0.09245433 -0.13517907 0.031219486 -0.0492732 0.23108563 0.05854537
-0.10187889 0.1277029 -0.046929885 -0.0031088227 0.07193825 0.07899322 0.10504397 -0.009519119
-0.045235075 0.06184783 -0.08949064 -0.030220255 -0.14595664 -0.05092018 -0.023469342 -0.1424437
00000000: 46a5 06be e527 7fbd 9143 a73d 63fa 4a3e
00000010: c23b 2f3e 1831 6cbd 74bc 7e3d 61d7 49bc
00000020: 65b8 333d 6e57 af3d b258 bd3d 626c 0abe
00000030: 02c0 ff3c b2d2 49bd b6a1 6c3e 45cd 6f3d
00000040: e1a5 d0bd 8dc4 023e 8d39 40bd 64bd 4bbb
00000050: 5c54 933d 33c7 a13d 4b21 d73d 14f6 1bbc
00000060: 6a48 39bd 2654 7d3d de46 b7bd 7890 f7bc
00000070: a875 15be ae91 50bd c742 c0bc c3dc 11be

encoder2.1.running_mean f4 [32]
0.24418971 -0.0065887272 -0.4296477 -0.20696814 -0.11198234 0.47643137 -0.16589893 -0.2539359
0.019085903 -0.067694254 0.04886244 0.6324907 -0.15845048 -0.032033604 -0.28882504 -0.2927097
0.040115878 0.0889488 0.17456949 0.45844156 -0.08451775 -0.071124084 -0.04672636 -0.1304545
0.25797188 -0.023391131 0.69056356 -0.18279058 0.476264 -0.26008084 0.0976397 0.45946276
00000000: de0c 7a3e 40e6 d7bb c9fa dbbe 75ef 53be
00000010: ff56 e5bd d0ee f33e 69e1 29be e303 82be
00000020: 0a5a 9c3c 49a3 8abd fb23 483d e9ea 213f
00000030: d840 22be ab35 03bd e0e0 93be 0cde 95be
00000040: 8c50 243d ca2a b63d 58c2 323e dab8 ea3e
00000050: a417 adbd 81a9 91bd 2464 3fbd dd95 05be
00000060: e414 843e c29e bfbc c6c8 303f 742d 3bbe
00000070: e0d8 f33e 5129 85be 53f7 c73d b43e eb3e

encoder2.1.running_var f4 [32]
0.30063584 0.14087553 0.6359263 0.19356497 0.10502306 0.27930146 0.2567014 0.072943516
0.32311887 0.111992225 0.10279728 0.7949494 0.35888708 0.27612954 0.34798068 0.37224436
0.23099208 0.23689996 0.17761444 0.3875792 0.14087538 0.19529577 0.08100447 0.74539965
0.6186593 0.43081692 0.839837 0.9644701 0.18373902 0.34570658 0.28242368 0.8441929
00000000: f1ec 993e ad41 103e 11cc 223f e535 463e
00000010: 5516 d73d 9a00 8f3e 5e6e 833e 6963 953d
00000020: d66f a53e 2e5c e53d 6187 d23d ce81 4b3f
00000030: 0cc0 b73e da60 8d3e 862a b23e d096 be3e
00000040: 3089 6c3e e795 723e 8fe0 353e c870 c63e
00000050: a341 103e 9dfb 473e ace5 a53d 83d2 3e3f
00000060: 7560 1e3f 0994 dc3e 8fff 563f 83e7 763f
00000070: 1526 3c3e 7400 b13e d699 903e 071d 583f

encoder2.3.weight f4 [32, 32, 3]
-0.0047375015 -0.058857538 -0.04383772 0.064034544 0.059242673 -0.13801542 5.3520456e-05 0.029218966
0.027146623 -0.15977797 0.06776472 0.050108094 -0.07857863 0.045903195 -0.11103261 0.010666566
0.028266104 -0.09669535 0.19238621 0.02974533 0.018899143 -0.021896405 -0.041255787 0.027270846
0.083361164 -0.03749156 0.017712034 0.08028855 0.06671775 -0.0788922 0.085172735 -0.027097797
-0.026459157 -0.008516137 -0.012377549 0.006434605 -0.065676026 0.06839735 -0.12119089 0.01998912
-0.053190082 0.016394656 0.22644325 -0.08046948 -0.03753577 -0.00089200796 -0.075997576 0.13504945
0.046103787 0.042974506 -0.040713158 -0.1319699 0.0078074955 0.008649045 -0.14498927 0.022596672
0.033636827 0.09220399 -0.054591887 0.039301645 0.1458474 0.026612036 -0.08969173 0.05734778
0.0012357722 -0.029468007 0.027884848 -0.02946646 -0.025415765 0.07781231 0.053033065 0.009647087
0.11870321 -0.007783245 -0.038053878 -0.06830837 -0.061576676 0.05345291 0.024891019 0.035391744
-0.09693792 -0.07854485 0.043636005 -0.0801229 -0.09400364 -0.0011412218 0.06787126 0.012527113
0.052455597 0.09604861 -0.09991015 0.024433827 -0.041690893 0.00025332402 -0.07091291 -0.070206895
-0.13358973 -0.0905137 -0.12400919 -0.041254025 -0.14009295 -0.039332476 -0.058727894 -0.08215031
0.028225228 -0.031822596 -0.018515201 -0.10721908 0.020421345 -0.01890124 -0.08905923 -0.10773114
-0.05081448 0.076488666 -0.017296962 0.060661763 -0.01840951 0.08420429 -0.055927396 0.00209511
-0.089235574 -0.077562235 0.01750488 -0.13060395 -0.053316865 0.022622153 0.022995824 0.040416602
0.090129614 -0.16369066 0.049055144 -0.04174838 -0.06029041 -0.11549797 -0.20485105 -0.07535393
-0.041993245 -0.027349344 0.022971973 0.047904506 0.05345407 0.17029047 0.08629918 0.045117825
-0.031270362 0.0030401936 0.020428838 -0.10570544 0.054167535 -0.053754438 -0.04368348 0.055982172
-0.014435102 -0.06354154 -0.053661186 -0.00916206 -0.035404157 0.02592842 -0.058965504 0.00746441
-0.029348062 -0.17480154 0.0904326 -0.04627968 -0.052442767 -0.053840682 -0.012241989 -0.031164953
0.03531837 -0.05979475 0.04198311 -0.11672267 -0.12005858 -0.03469776 -0.097949326 -0.0059678787
-0.02996117 -0.10082269 -0.0056904005 0.09220511 -0.046221573 -0.07556868 0.033139516 0.07948187
0.022057809 0.102943 0.024439555 0.057796586 -0.0863963 -0.083961055 -0.10707348 -0.109711036
-0.078596264 -0.10050854 -0.12378394 -0.018635007 0.04984214 -0.09470784 -0.06263552 -0.07409761
-0.044598207 -0.052251827 -0.035688713 0.018600838 0.08642435 -0.12300041 0.061263178 -0.09341519
0.05991518 -0.023704093 -0.12597153 -0.12586293 -0.072741605 -0.0031533614 0.114135504 -0.05752646
-0.14008005 -0.04392186 0.023816435 0.07183666 -0.05448093 -0.032573976 0.020090207 -0.108385526
0.1604908 -0.01683792 -0.0031032888 -0.078302644 0.028425472 0.020573653 0.118832916 0.028602423
-0.004632017 0.03962489 0.060079377 -0.05924196 -0.07840377 0.020845195 0.038716964 0.06113122
-0.079433896 -0.03669582 0.08082803 -0.0850393 -0.013586319 0.06949422 -0.075784996 -0.0071793934
0.039766245 -0.043001506 -0.068354264 0.07084019 -0.00915154 -0.015046632 -0.008264863 -0.06893382
00000000: 0b3d 9bbb 9a14 71bd 2e8f 33bd 8b24 833d
00000010: 72a8 723d ea53 0dbe 277b 6038 9d5c ef3c
00000020: 9862 de3c d69c 23be 3bc8 8a3d 253e 4d3d
00000030: d5ed a0bd fd04 3c3d 1165 e3bd d2c2 2e3c
00000040: 518e e73c 3608 c6bd e400 453e 7aac f33c
00000050: 60d2 9a3c 1760 b3bc d4fb 28bd 1c67 df3c
00000060: 42b9 aa3d c090 19bd d418 913c 536e a43d
00000070: 51a3 883d 3c92 a1bd 0b6f ae3d 33fc ddbc
00000080: e0c0 d8bc 4487 0bbc 34cb 4abc 61d9 d23b
00000090: 2781 86bd e913 8c3d ee32 f8bd 39c0 a33c
000000a0: d8dd 59bd 164e 863c bde0 673e 2fcd a4bd
000000b0: 1cbf 19bd a4d5 69ba 9ea4 9bbd 674a 0a3e
000000c0: 53d7 3c3d 0906 303d d7c2 26bd 1e23 07be
000000d0: 05d6 ff3b b9b4 0d3c 1178 14be a81c b93c
000000e0: c5c6 093d 72d5 bc3d be9b 5fbd c3fa 203d
000000f0: 0559 153e 7c01 da3c 4cb0 b7bd 81e5 6a3d
00000100: a2f9 a13a e466 f1bc c46e e43c a563 f1bc
00000110: b934 d0bc 0f5c 9f3d 3339 593d d10e 1e3c
00000120: ab1a f33d 970a ffbb 62de 1bbd 42e5 8bbd
00000130: d337 7cbd 70f1 5a3d 40e8 cb3c eff6 103d
00000140: 6387 c6bd 1fdc a0bd abbb 323d 7a17 a4bd
00000150: fb84 c0bd 0d95 95ba 1600 8b3d 853e 4d3c
00000160: aedb 563d 22b5 c43d b19d ccbd 7329 c83c
00000170: 12c4 2abd 93d0 8439 ca3a 91bd a2c8 8fbd
00000180: bfcb 08be 3f5f b9bd 88f8 fdbd fbf9 28bd
00000190: 8774 0fbe 171b 21bd a98c 70bd 6c3e a8bd
000001a0: 9838 e73c 6958 02bd 31ad 97bc ad95 dbbd
000001b0: aa4a a73c c6d6 9abc b064 b6bd 25a2 dcbd
000001c0: d822 50bd 17a6 9c3d 5cb2 8dbc 7878 783d
000001d0: 8acf 96bc 4c73 ac3d 2014 65bd 1d4e 093b
000001e0: 24c1 b6bd f3d8 9ebd 6566 8f3c 0bbd 05be
000001f0: c962 5abd 1852 b93c bd61 bc3c e18b 253d
00000200: e095 b83d 869e 27be 0cee 483d 5900 2bbd
00000210: 14f3 76bd 338a ecbd 79c4 51be 2953 9abd
00000220: 1c01 2cbd bb0b e0bc b82f bc3c 8437 443d
00000230: a8f2 5a3d a060 2e3e a0bd b03d 78cd 383d
00000240: 5a15 00bd fc3d 473b 615a a73c 187c d8bd
00000250: c7de 5d3d 9d2d 5cbd 73ed 32bd 904d 653d
00000260: 3581 6cbc 1122 82bd d5cb 5bbd 771c 16bc
00000270: f303 11bd d667 d43c d085 71bd 0298 f43b
00000280: 596b f0bc 2dff 32be ba34 b93d c38f 3dbd
00000290: 3ace 56bd 0c88 5cbd a092 48bc a54d ffbc
000002a0: ffa9 103d 57eb 74bd 7bf6 2b3d 4c0c efbd
000002b0: 46e1 f5bd 3d1f 0ebd a899 c8bd 328e c3bb
000002c0: 2171 f5bc 207c cebd 8a76 babb 08d6 bc3d
000002d0: d552 3dbd c1c3 9abd 4dbd 073d 64c7 a23d
000002e0: 94b2 b43c c8d3 d23d 7635 c83c 1dbc 6c3d
000002f0: 8bf0 b0bd c6f3 abbd 5749 dbbd 2eb0 e0bd
00000300: 14f7 a0bd 6cd7 cdbd 6f82 fdbd 71a8 98bc
00000310: 4627 4c3d 2ff6 c1bd 0d47 80bd 7dc0 97bd
00000320: 9cac 36bd 0306 56bd 542e 12bd c960 983c
00000330: 40ff b03d a4e7 fbbd 19ef 7a3d 7750 bfbd
00000340: 9f69 753d 162f c2bc aefe 00be 36e2 00be
00000350: 8df9 94bd a0a8 4ebb e0bf e93d dea0 6bbd
00000360: 2571 0fbe 69e7 33bd af1a c33c 191f 933d
00000370: 6527 5fbd 4a6c 05bd 3894 a43c 3bf9 ddbd
00000380: b357 243e adef 89bc 8c60 4bbb 235d a0bd
00000390: 89dc e83c 148a a83c ac5e f33d a14f ea3c
000003a0: 2dc8 97bb b54d 223d cb15 763d b3a7 72bd
000003b0: 2892 a0bd 8bc3 aa3c ae95 1e3d bb64 7a3d
000003c0: 3dae a2bd 5b4e 16bd 2b89 a53d 1629 aebd
000003d0: 2799 5ebc fc52 8e3d 2a35 9bbd 1e41 ebbb
000003e0: eee1 223d 5922 30bd 52fd 8bbd a914 913d
000003f0: 57f0 15bc 2686 76bc 5969 07bc 2d2d 8dbd

encoder2.3.bias f4 [32]
0.032688852 -0.03618752 -0.04693902 0.018121246 -0.081185885 0.01824233 -0.080572955 -0.06850381
0.030709203 0.0743305 -0.0042362693 0.080096684 -0.04927133 0.08231773 0.054586668 -0.030441105
0.06690317 0.060118195 -0.023333063 0.08052421 0.02980718 0.07654959 0.07032449 -0.028727816
0.07318225 -0.08225119 0.04095955 -0.038543247 0.05193617 -0.017400496 0.085611425 -0.03174533
00000000: bfe4 053d 5d39 14bd 2143 40bd 0273 943c
00000010: c944 a6bd f070 953c 6f03 a5bd ba4b 8cbd
00000020: de91 fb3c 973a 983d 67d0 8abb bb09 a43d
00000030: bcd0 49bd 3396 a83d 4596 5f3d a05f f9bc
00000040: 8704 893d 7f3e 763d fb24 bfbc e1e9 a43d
00000050: 302e f43c 08c6 9c3d 4906 903d 9956 ebbc
00000060: 93e0 953d 5073 a8bd 33c5 273d 86df 1dbd
00000070: 05bb 543d 7c8b 8ebc 0b55 af3d 6407 02bd

encoder2.4.weight f4 [32]
1.011124 0.96383935 1.0471922 1.160866 1.0127021 0.94143975 0.86891186 1.0317451
0.87108874 0.97249436 0.9438078 0.8812375 1.0930591 1.0413969 0.9269883 0.9754717
0.9079204 0.96919173 1.0814192 0.9100695 0.8913823 0.9503514 0.8742293 1.0582284
1.018452 0.88058794 0.93123513 1.0994446 1.0366182 1.0306153 0.94772696 0.9918206
00000000: 836c 813f 2dbe 763f 650a 863f 4297 943f
00000010: 39a0 813f 3202 713f 0271 5e3f 3910 843f
00000020: acff 5e3f 64f5 783f 639d 713f c898 613f
00000030: 5ce9 8b3f 7e4c 853f 1b4f 6d3f 83b8 793f
00000040: 796d 683f f31c 783f f26b 8a3f 51fa 683f
00000050: a131 643f 3b4a 733f 7ecd 5f3f 0774 873f
00000060: a35c 823f 366e 613f 6d65 6e3f 9aba 8c3f
00000070: e8af 843f 34eb 833f 3c9e 723f f4e7 7d3f

encoder2.4.bias f4 [32]
0.047563013 0.031566907 0.12347025 0.11352716 -0.015492853 -0.02289838 -0.11076928 0.03196994
-0.10033938 0.012137653 -0.037310813 -0.003012378 0.1797814 0.032344498 0.04806694 0.0031598832
-0.02781157 -0.026214026 0.11404766 -0.039282177 -0.11713512 -0.017221302 -0.03189793 -0.020291828
-0.058729447 -0.075122476 -0.10939791 0.18582706 0.024228314 0.0048584156 -0.13283627 0.12163311
00000000: 6fd1 423d 4d4c 013d f8dd fc3d ed80 e83d
00000010: bcd5 7dbc 6295 bbbc 01db e2bd e9f2 023d
00000020: bc7e cdbd 02dd 463c 39d3 18bd 516b 45bb
00000030: 9e18 383e aa7b 043d d7e1 443d 0b16 4f3b
00000040: 17d5 e3bc ccbe d6bc d291 e93d 59e6 20bd
00000050: 8ae4 efbd b013 8dbc 67a7 02bd 0c3b a6bc
00000060: 4a8e 70bd d0d9 99bd 030c e0bd 7349 3e3e
00000070: 757a c63c 5833 9f3b 3b06 08be c81a f93d

encoder2.4.running_mean f4 [32]
0.03506427 -0.5727768 -0.31752393 -0.26192346 0.1646674 -0.3446049 0.46865448 -0.095851205
0.18139075 -0.013724974 0.24567162 0.54302096 -0.3238658 0.13115494 -0.032816224 -0.25982186
0.058832392 0.0009963387 0.0092309695 0.6519018 0.55090135 0.3150723 -0.014817544 -0.064369656
0.010542375 0.1706578 0.5854749 -0.04962117 0.18846294 -0.16537029 0.51262176 0.13159129
00000000: 8d9f 0f3d 80a1 12bf 7f92 a2be d51a 86be
00000010: 929e 283e 0e70 b0be 7bf3 ef3e a34d c4bd
00000020: 7fbe 393e b7de 60bc 5791 7b3e 6c03 0b3f
00000030: bdd1 a5be 7b4d 063e 4e6a 06bd 5f07 85be
00000040: 3cfa 703d 9497 823a 7e3d 173c 09e3 263f
00000050: df07 0d3f 2851 a13e 49c5 72bc 3dd4 83bd
00000060: edb9 2c3c ebc0 2e3e afe1 153f 913f 4bbd
00000070: 6efc 403e d456 29be 2e3b 033f debf 063e

encoder2.4.running_var f4 [32]
0.18182734 1.8515545 0.60259193 0.37426817 0.31573805 1.0363847 0.2905002 0.4092019
0.2462693 1.6323621 0.72631764 0.4271201 0.31749368 0.61558396 0.30110076 0.40844285
0.47431844 0.18425095 0.26931456 0.96788627 0.41957211 0.52691734 0.7337629 0.26332566
0.36906147 0.33765545 0.5382473 0.28728494 0.14935876 0.47615477 0.54077256 0.29643515
00000000: f230 3a3e bdff ec3f 7743 1a3f 14a0 bf3e
00000010: 6ba8 a13e 41a8 843f 71bc 943e e982 d13e
00000020: 052e 7c3e 3ef1 d03f f4ef 393f 7caf da3e
00000030: 888e a23e e996 1d3f e129 9a3e 6c1f d13e
00000040: ded9 f23e 48ac 3c3e 99e3 893e 65c7 773f
00000050: 28d2 d63e 0ee4 063f e3d7 3b3f 9fd2 863e
00000060: a0f5 bc3e 2de1 ac3e 93ca 093f 0317 933e
00000070: 81f1 183e 8fca f33e 1270 0a3f 59c6 973e

bottleneck.0.weight f4 [64, 32, 3]
-0.009237445 -0.12313301 -0.0062219505 0.106440894 0.088707455 -0.023900963 -0.081070535 -0.14293627
-0.0803508 -0.11532061 -0.01966903 0.07377765 0.08682159 0.027589394 -0.030695673 -0.08338596
-0.047911026 0.046387743 0.054602455 0.07824983 0.0888829 0.06286273 0.038508747 0.085309915
-0.038400233 0.02009699 0.063302845 0.046385802 0.05983283 0.016348373 0.006493663 0.004437586
-0.10985989 -0.0764885 -0.018112088 -0.100253 -0.07016796 -0.10503868 -0.18420759 0.059445437
0.083900005 0.079352155 -0.04415724 0.058133617 0.012319088 -6.057285e-05 -0.009044982 -0.026191117
0.058860626 0.009441972 -0.11126943 -0.120520726 0.10319013 0.080634676 0.086910054 0.026731567
0.165115 -0.11611025 0.042189986 0.12095222 -0.042628348 -0.106087126 -0.08241435 0.038178615
-0.062577866 0.08919715 -0.021650897 -0.1136843 -0.057561953 0.012059628 -0.100590296 0.08273785
-0.03525 -0.042699847 0.0230786 -0.0278681 -0.04588242 0.10048702 0.061018884 -0.08008457
-0.0964595 -0.10936545 0.03755681 -0.046820488 0.02160633 0.024645962 0.03491996 -0.104067564
-0.009294831 0.13360931 -0.11549181 -0.053274535 -0.08364463 0.08632038 -1.9731972e-06 -0.04516993
0.076219745 -0.022204781 -0.06930197 0.043205786 -0.017692847 0.056461155 0.009165725 -0.07563428
0.008077627 0.09404036 0.076695204 -0.2875216 0.14688355 -0.047635768 -0.037693415 0.09583182
0.048579086 0.07567815 0.015669392 0.009597382 0.06982218 -0.07508378 -0.04173417 0.031226829
-0.06139788 0.072836444 -0.059126697 0.0915016 -0.024083897 -0.041327167 -0.003790634 0.026194304
-0.021195408 0.05703539 0.006367899 -0.0891028 0.11626578 -0.008598284 0.01958657 -0.031196449
0.06769971 -0.034497622 -0.026617205 -0.05697522 0.07381796 0.083532214 -0.0035299603 -0.14057507
-0.018155538 0.0051658615 -0.059308603 0.060162876 0.013496237 -0.06849978 0.014317202 0.049782883
-0.030725617 -0.007987877 0.060103234 0.048071902 0.06680203 -0.06950645 0.057015155 -0.086186714
-0.08087157 0.024459207 0.03778603 0.013956339 -0.03263978 -0.035012644 -0.10295113 -0.0055215955
-0.021278057 -0.06380771 -0.04327638 -0.014525659 0.116410665 0.054679964 0.087652005 -0.04096661
0.12166373 -0.051428054 -0.006101788 -0.078187115 0.08628651 -0.24200286 0.14359859 -0.0020509402
-0.069057755 -0.08761278 -0.07530548 0.104150414 0.11860193 0.01239351 0.08810018 0.0066957627
-0.13862997 0.06357049 -0.0307229 -0.03697343 -0.04081041 0.019326411 -0.100453526 0.016939158
0.15965493 0.08196878 -0.12427665 -0.035557017 -0.14794007 0.030588035 -0.02581082 -0.07689967
0.0032629662 -0.10197281 0.07289942 0.0008033451 -0.0843064 -0.13052198 0.067380205 0.031818967
-0.13665299 -0.053012036 -0.04557668 -0.056936566 0.0659834 0.024774753 -0.042809397 -0.045981493
0.027261857 -0.13107729 -0.018139062 0.081861414 -0.20472907 0.064996704 0.051287703 -0.02359219
-0.06028323 -0.028626693 -0.13927849 0.023446616 0.03401285 0.03185041 -0.03163752 0.07507062
-0.06503727 0.035302687 -0.06839171 0.005324535 0.02012814 -0.00053509395 -0.055525724 0.018415637
-0.023353118 -0.0014336766 -0.10643047 -0.013356933 -0.022277737 0.06943507 0.032141913 -0.080383316
00000000: a758 17bc 292d fcbd 81e1 cbbb affd d93d
00000010: 41ac b53d f4cb c3bc 4f08 a6bd e35d 12be
00000020: f68e a4bd 362d ecbd f220 a1bc bd18 973d
00000030: 85cf b13d 2703 e23c 7e75 fbbc 42c6 aabd
00000040: 5a3e 44bd 1301 3e3d d3a6 5f3d 7241 a03d
00000050: 3d08 b63d 2dbe 803d 59bb 1d3d f7b6 ae3d
00000060: 9049 1dbd 71a2 a43c eca4 813d 0aff 3d3d
00000070: 4513 753d 06ed 853c cbc8 d43b 2b69 913b
00000080: 39fe e0bd 01a6 9cbd cd5f 94bc 7251 cdbd
00000090: 38b4 8fbd 851e d7bd eaa0 3cbe 0f7d 733d
000000a0: c4d3 ab3d 6283 a23d 39de 34bd 841d 6e3d
000000b0: 00d6 493c 9a0f 7eb8 6731 14bc c18e d6bc
000000c0: d717 713d 80b2 1a3c 3ae1 e3bd 92d3 f6bd
000000d0: 5955 d33d cb23 a53d e6fd b13d 29fc da3c
000000e0: e813 293e 36cb edbd 68cf 2c3d ccb5 f73d
000000f0: 109b 2ebd 3544 d9bd dbc8 a8bd 2e61 1c3d
00000100: d328 80bd ffac b63d 395d b1bc 50d3 e8bd
00000110: 15c6 6bbd bf95 453c 4902 cebd 7672 a93d
00000120: 4e62 10bd 09e6 2ebd 550f bd3c a44b e4bc
00000130: 34ef 3bbd 24cc cd3d f0ee 793d 6103 a4bd
00000140: 8f8c c5bd fefa dfbd 2bd5 193d d7c6 3fbd
00000150: c2ff b03c 54e6 c93c 3b08 0f3d 6021 d5bd
00000160: 5949 18bc e1d0 083e f886 ecbd 6636 5abd
00000170: e04d abbd bdc8 b03d 456b 04b6 1b04 39bd
00000180: 1919 9c3d cde6 b5bc 31ee 8dbd 8df8 303d
00000190: 97f0 90bc d043 673d d62b 163c 25e6 9abd
000001a0: 0658 043c 3b98 c03d 6012 9d3d 0836 93be
000001b0: a468 163e b91d 43bd 6964 1abd 7943 c43d
000001c0: ddfa 463d 25fd 9a3d 195d 803c 563e 1d3c
000001d0: eefe 8e3d 86c5 99bd 73f1 2abd 68cf ff3c
000001e0: 587c 7bbd 462b 953d d62e 72bd 3165 bb3d
000001f0: 984b c5bc ad46 29bd 496c 78bb 7095 d63c
00000200: fea1 adbc f19d 693d cfa9 d03b 877b b6bd
00000210: c11c ee3d d1df 0cbc 0474 a03c b28f ffbc
00000220: 25a6 8a3d 614d 0dbd 530c dabc d95e 69bd
00000230: df2d 973d f012 ab3d e856 67bb e9f2 0fbe
00000240: ecba 94bc 6346 a93b 94ed 72bd 596d 763d
00000250: 521f 5d3c 9d49 8cbd b392 6a3c 23e9 4b3d
00000260: 4ab4 fbbc 96df 02bc cf2e 763d 0be7 443d
00000270: 81cf 883d 6659 8ebd b988 693d a982 b0bd
00000280: fe9f a5bd ad5e c83c 86c5 1a3d 21a9 643c
00000290: 4ab1 05bd 6b69 0fbd 0bd8 d2bd 80ee b4bb
000002a0: 524f aebc 9ead 82bd 9342 31bd 08fd 6dbc
000002b0: b768 ee3d 19f8 5f3d e582 b33d 9bcc 27bd
000002c0: d52a f93d 39a6 52bd 82f1 c7bb 9120 a0bd
000002d0: fbb6 b03d 99cf 77be 820b 133e 1169 06bb
000002e0: 276e 8dbd 546e b3bd c239 9abd d04c d53d
000002f0: 92e5 f23d 260e 4b3c de6d b43d 2168 db3b
00000300: 04f5 0dbe 3f31 823d 97ae fbbc 7471 17bd
00000310: d128 27bd 6c52 9e3c 94ba cdbd fdc3 8a3c
00000320: 957c 233e 3fdf a73d c284 febd 3ca4 11bd
00000330: 9a7d 17be c293 fa3c 3671 d3bc 937d 9dbd
00000340: 7dd7 553b 1fd7 d0bd 4b4c 953d 9497 523a
00000350: d5a8 acbd 8ea7 05be a2fe 893d 9b54 023d
00000360: c3ee 0bbe 2623 59bd 9dae 3abd 5136 69bd
00000370: 4e22 873d 6cf4 ca3c e858 2fbd 1757 3cbd
00000380: 4254 df3c 2039 06be 5f98 94bc f5a6 a73d
00000390: 7fa4 51be fe1c 853d 0e13 523d 6944 c1bc
000003a0: 8ceb 76bd 8782 eabc 059f 0ebe 1e13 c03c
000003b0: 0f51 0b3d 9375 023d 5896 01bd a0be 993d
000003c0: 4332 85bd 8d99 103d f410 8cbd 7079 ae3b
000003d0: c5e3 a43c 8c45 0cba f16e 63bd 64dc 963c
000003e0: 0a4f bfbc 34ea bbba 38f8 d9bd 0ad7 5abc
000003f0: cd7f b6bc f933 8e3d 3da7 033d 02a0 a4bd

bottleneck.0.bias f4 [64]
-0.08071639 -0.09763564 -0.087078586 0.07940418 -0.039270874 0.07759961 -0.014676391 0.039669763
0.0018774457 -0.081892595 0.009843328 -0.008465515 -0.08022407 0.047843546 -0.008262941 0.09055293
0.057516195 -0.03054752 -0.035664525 -0.08449193 0.019600885 -0.09494942 -0.08724224 0.042639
-0.021092951 0.007063994 -0.0119157275 -0.059692264 0.0066579394 0.02012485 0.07931254 0.06001346
-0.097623006 0.096521124 0.037452996 0.04727141 0.044979792 0.0122937225 -0.028316125 -0.0049474854
-0.073770836 0.0669175 0.0962595 0.05575831 0.023025377 0.105344996 -0.037843704 -0.07695216
0.05774069 -0.09913066 -0.034415077 0.09424218 -0.08625104 0.078470044 -0.06493022 -0.02704659
-0.090694726 0.011372594 -0.08012191 -0.017643465 0.028673962 -0.05646133 -0.07920108 -0.09037743
00000000: a24e a5bd 32f5 c7bd 4256 b2bd a99e a23d
00000010: 7fda 20bd 8bec 9e3d 3f75 70bc c37c 223d
00000020: a014 f63a 4eb7 a7bd e945 213c f2b2 0abc
00000030: 844c a4bd 98f7 433d 4961 07bc d173 b93d
00000040: 1a96 6b3d cb3e fabc f714 12bd 1b0a adbd
00000050: 0992 a03c d774 c2bd 0fac b2bd 3ba6 2e3d
00000060: 20cb acbc 1479 e73b 2f3a 43bc e07f 74bd
00000070: d82a da3b dfdc a43c 9d6e a23d add0 753d
00000080: 92ee c7bd deac c53d 5068 193d aa9f 413d
00000090: bb3c 383d 9c6b 493c 38f7 e7bc 841e a2bb
000000a0: 2a15 97bd 0b0c 893d b323 c53d d362 643d
000000b0: b79f bc3c 1ebf d73d 0002 1bbd 1899 9dbd
000000c0: 8081 6c3d 0405 cbbd d3f6 0cbd 0b02 c13d
000000d0: 63a4 b0bd e7b4 a03d 23fa 84bd cf90 ddbc
000000e0: 28be b9bd 1e54 3a3c f516 a4bd 0789 90bc
000000f0: a8e5 ea3c ff43 67bd 2d34 a2bd cd17 b9bd

bottleneck.1.weight f4 [64]
1.0049117 0.9375627 1.1288918 0.952305 1.0727496 1.1760198 1.058525 1.0314286
1.0664893 0.95083743 0.92698115 0.9297813 1.0034463 1.0710658 1.0509421 1.1083875
1.0941908 0.8854881 0.870308 1.0025549 1.0442572 1.0354205 1.1071247 0.8582614
1.1187372 1.053865 1.003353 0.9497629 0.9628316 0.9634304 0.9211976 1.0404272
0.99881977 1.0695308 1.0498241 0.8954997 0.97054094 1.0164552 1.0334829 1.0252144
0.9995933 1.0510976 1.0525298 0.979909 0.95598173 1.124594 1.0746685 0.8160563
0.9261181 0.9401263 0.9771529 1.0428447 1.0090325 0.8201097 0.89402467 0.9557533
0.969948 0.9917175 0.90794307 0.9894793 0.9772998 1.0478181 0.90843266 1.0349668
00000000: f2a0 803f 1c04 703f 877f 903f 43ca 733f
00000010: dc4f 893f d187 963f bf7d 873f da05 843f
00000020: b982 883f 156a 733f a34e 6d3f 2606 6e3f
00000030: ee70 803f af18 893f 4585 863f a4df 8d3f
00000040: 720e 8c3f 59af 623f 81cc 5e3f b853 803f
00000050: 38aa 853f a988 843f 43b6 8d3f 05b7 5b3f
00000060: c832 8f3f 0ce5 863f df6d 803f a923 733f
00000070: 227c 763f 60a3 763f 9bd3 6b3f b82c 853f
00000080: a7b2 7f3f 63e6 883f a360 863f 783f 653f
00000090: 5f75 783f 341b 823f 2b49 843f 3a3a 833f
000000a0: 59e5 7f3f 5e8a 863f 4cb9 863f 51db 7a3f
000000b0: 38bb 743f b2f2 8f3f bd8e 893f 11e9 503f
000000c0: 1316 6d3f 1eac 703f b126 7a3f ef7b 853f
000000d0: fa27 813f b6f2 513f cdde 643f 40ac 743f
000000e0: 834e 783f 33e1 7d3f f56e 683f 844e 7d3f
000000f0: 5230 7a3f e71e 863f 0b8f 683f cb79 843f

bottleneck.1.bias f4 [64]
-0.015120243 -0.11039894 0.12343558 -0.15450577 0.098895214 0.014875302 0.2013058 -0.058307074
-0.007402244 -0.044803306 -0.0030554663 -0.10233304 -0.0077288495 -0.01673488 0.06539324 0.15607682
0.0026282542 -0.052854802 -0.013317676 -0.10625813 0.03653047 0.08017555 0.02525645 -0.20396239
0.022700405 -0.044918485 -0.052813545 -0.008252242 -0.0709729 0.0066785915 -0.029963015 0.0109005235
0.047012437 0.10926294 0.08626916 -0.10895915 -0.004538106 -0.029470574 0.1193188 0.04792863
-0.06685796 0.14860506 -0.053093433 0.05540141 0.031032797 0.13548495 0.024902435 -0.15562043
0.009546202 -0.1592798 -0.008624915 -0.010318832 0.10012589 -0.15889576 -0.10791989 -0.055080105
0.07188378 -0.037235644 -0.10383298 -0.06273401 -0.030604383 -0.029304516 -0.14590843 0.107689805
00000000: e5ba 77bc d718 e2bd cbcb fc3d c336 1ebe
00000010: 9389 ca3d 8ab7 733c 1c23 4e3e 66d3 6ebd
00000020: 868e f2bb ac83 37bd 383e 48bb fc93 d1bd
00000030: 4a42 fdbb 9617 89bc e4ec 853d 9ad2 1f3e
00000040: ca3e 2c3b 477e 58bd 6232 5abc dd9d d9bd
00000050: f9a0 153d 1433 a43d 9de6 ce3c 84db 50be
00000060: 33f6 b93c 72fc 37bd 0453 58bd 6934 07bc
00000070: 3d5a 91bd 16d8 da3b ff74 f5bc 1c98 323c
00000080: 1d90 403d 40c5 df3d e3ad b03d fa25 dfbd
00000090: 64b4 94bb 466c f1bc 6a5d f43d d050 443d
000000a0: d3ec 88bd ed2b 183e 8078 59bd 97ec 623d
000000b0: 7e38 fe3c 91bc 0a3e 3100 cc3c f65a 1fbe
000000c0: ac67 1c3c 3e1a 23be 844f 0dbc 5110 29bc
000000d0: cd0e cd3d 92b5 22be 1a05 ddbd ad9b 61bd
000000e0: ce37 933d 6784 18bd 63a6 d4bd b07a 80bd
000000f0: 0bb6 fabc 0610 f0bc 0569 15be 798c dc3d

bottleneck.1.running_mean f4 [64]
-0.2695771 -0.14388777 -0.39374882 -0.09429058 -0.4459229 -0.037815098 -0.15402846 -0.20065476
-0.2548352 0.06546301 0.0035204075 -0.20579123 -0.09417153 -0.24270368 -0.53085375 -0.032415297
-0.2158886 0.20215546 0.22905852 -0.42175615 0.070299156 -0.50275236 -0.28830865 0.36859122
-0.46009463 -0.13818492 -0.256064 0.2347574 0.093538724 -0.5361565 0.5318895 -0.16228384
-0.1727386 -0.16355929 -0.15860645 0.25730255 -0.27411547 -0.16118181 -0.22138147 -0.3549315
-0.38192257 -0.51605666 0.0051957364 -0.34998375 -0.31760657 -0.23321296 -0.24494255 0.30307543
0.13571113 -0.063102506 -0.19956546 -0.08232013 -0.693439 0.2332909 0.29727465 -0.07497769
-0.4070759 -0.35960975 -0.34637594 -0.3401023 0.27842966 -0.627158 0.36284772 -0.37724745
00000000: 0206 8abe 5157 13be 7299 c9be 6b1b c1bd
00000010: 0250 e4be 01e4 1abd a3b9 1dbe 7178 4dbe
00000020: c279 82be 7811 863d a3b6 663b f0ba 52be
00000030: 01dd c0bd 5087 78be 08e6 07bf e7c5 04bd
00000040: e711 5dbe d701 4f3e 518e 6a3e 6cf0 d7be
00000050: 01f9 8f3d 61b4 00bf 319d 93be fdb7 bc3e
00000060: 8691 ebbe 5980 0dbe d21a 83be 3e64 703e
00000070: 3b91 bf3d 8d41 09bf e929 083f bc2d 26be
00000080: 63e2 30be 167c 27be bb69 22be 29bd 833e
00000090: dd58 8cbe d80c 25be d3b1 62be 95b9 b5be
000000a0: 5b8b c3be 4a1c 04bf ff40 aa3b 1231 b3be
000000b0: 549d a2be 61cf 6ebe 38d2 7abe b42c 9b3e
000000c0: dcf7 0a3e e33b 81bd e35a 4cbe 7597 a8bd
000000d0: 3885 31bf cfe3 6e3e 6234 983e e78d 99bd
000000e0: 416c d0be c51e b8be 3058 b1be e321 aebe
000000f0: 558e 8e3e 6d8d 20bf 2dc7 b93e 9426 c1be

bottleneck.1.running_var f4 [64]
0.24917717 0.14136256 0.60312384 0.315969 0.8501094 0.2967771 0.18009266 0.3311341
0.31980577 0.42439783 0.33933467 0.24862361 0.25992757 0.40147462 0.9896978 0.26267484
0.67869276 0.49233297 0.54803324 0.2288195 0.30808544 0.25670487 0.19795917 0.373995
0.27799925 0.23852243 0.47758144 0.4004011 0.25245708 2.7285595 0.47061825 0.33708054
0.15305704 0.71070737 0.24994434 0.25354534 1.2278386 0.35697702 0.2819514 0.70249134
0.24398558 0.7397916 0.39971265 0.2361273 0.6549952 0.5463063 0.2073472 0.3822554
0.16275366 0.45639217 0.20711318 0.2169105 1.8339287 0.28648904 1.3566778 0.19987884
0.8467359 0.27263722 0.43349192 0.48484585 0.24571534 0.47849905 0.4785112 1.4868953
00000000: 4d28 7f3e 59c1 103e 5366 1a3f b0c6 a13e
00000010: c5a0 593f 2bf3 973e 366a 383e 698a a93e
00000020: 95bd a33e ac4a d93e 46bd ad3e 3097 7e3e
00000030: 3a15 853e 158e cd3e d65c 7d3f 517d 863e
00000040: cfbe 2d3f 1113 fc3e e84b 0c3f a94f 6a3e
00000050: 60bd 9d3e d26e 833e cfb5 4a3e 467c bf3e
00000060: eb55 8e3e 393f 743e 8e85 f43e 5f01 cd3e
00000070: 0e42 813e b8a0 2e40 e0f4 f03e d295 ac3e
00000080: fcba 1c3e ebf0 353f 69f1 7f3e b2d0 813e
00000090: d129 9d3f b1c5 b63e ef5b 903e 79d6 333f
000000a0: 5bd7 793e fb62 3d3f 23a7 cc3e 5bcb 713e
000000b0: c4ad 273f bbda 0b3f d352 543e fbb6 c33e
000000c0: e5a8 263e 3cac e93e 7a15 543e c91d 5e3e
000000d0: 2dbe ea3f b1ae 923e 9ea7 ad3f 0aad 4c3e
000000e0: afc3 583f 1b97 8b3e a7f2 dd3e b73d f83e
000000f0: cd9c 7b3e d4fd f43e 6cff f43e 9652 be3f
